GAN/GAN_Generator.pt (torch, 5252 bytes, 6 tensors)

fc.0.weight f4 [8, 64]
-0.12953739 -0.20101573 -0.0069275755 0.024531992 -0.27708247 -0.22713901 0.22692582 0.26511228
-0.41150916 0.12558754 0.16949089 -0.03633317 0.25108364 0.18687859 -0.36257136 -0.24776876
0.22535847 -0.104321554 0.009454667 -0.19838724 0.28146374 0.124307804 -0.15724242 -0.25518927
-0.4319336 -0.02767396 -0.15159978 -0.036508918 -0.050003115 -0.24349438 0.2625374 -0.06692503
0.08161215 -0.02726944 -0.19512291 0.23230712 0.0625531 0.30541438 -0.23623055 0.25115833
0.39019307 -0.27578172 0.24755788 -0.2109578 -0.15512238 0.15016845 0.32708025 0.22670627
-0.11581284 -0.20619771 -0.105522804 -0.2770327 0.3118357 0.3424015 -0.018354023 0.13818893
-0.18705942 0.15679993 0.2875022 0.41902977 -0.26147622 -0.107797824 0.12447193 0.23034306
0.21857163 0.22977796 0.17311256 0.22077513 0.2446911 0.04162979 -0.004868424 0.10434078
-0.1909881 -0.2501537 0.2833708 0.10442527 0.23774727 -0.2377253 0.23230012 -0.13455075
-0.024295958 0.27310055 0.16313145 -0.32424602 -0.13277201 0.29231495 0.26347134 0.2750756
0.23211657 0.23306145 0.07909383 -0.20994246 -0.1532629 -0.16096984 -0.10732932 -0.29051852
-0.26773134 -0.1485849 -0.14581446 0.14634499 -0.21939278 -0.20671657 0.14658192 0.12624311
-0.14947243 0.103080526 0.03656348 0.12339204 -0.23974656 0.0535115 0.14644556 -0.17715696
-0.13374904 -0.23668778 0.30716875 -0.15039931 0.15188946 -0.215219 0.21674335 -0.23301823
0.21926177 -0.26746866 -0.15379326 -0.26347315 -0.28524536 0.23506474 -0.23625085 0.111523226
0.2690145 0.16806094 -0.26676014 0.45882228 -0.20138311 -0.009159735 -0.31553844 0.18089487
-0.38240913 -0.115285054 0.3397762 0.18522786 0.23893963 -0.43891466 0.23790218 0.26606977
-0.3960043 -0.020910803 -0.21500598 -0.2906556 -0.29171407 0.31974563 -0.19530821 -0.29837593
-0.16507456 -0.27291882 -0.11110333 -0.19591671 -0.22250575 -0.06319755 0.07157944 0.3287579
0.026999786 0.29127902 0.28526387 0.24768144 -0.37890053 0.3244241 0.37430128 -0.024167348
0.009362139 0.14356141 -0.32532325 0.19997883 0.2361704 0.31963518 0.17500709 0.033433367
0.33940697 -0.25526163 0.1904757 -0.21832377 0.24160321 0.10033441 -0.28978184 -0.13909246
0.014730976 0.27734655 -0.26802382 0.31145072 0.1990188 0.20199712 0.17169218 0.2837896
-0.108534485 -0.016264757 0.24620104 0.32309145 0.19809568 -0.099116616 0.08508619 -0.14582117
0.17685516 -0.27263364 0.03545992 0.006107293 -0.06503059 -0.1599426 0.3519574 0.18276888
-0.31650874 0.124947995 -0.23502128 0.20365442 0.07558733 0.22254919 0.22913575 0.21430783
0.25766936 0.27514255 -0.020787233 -0.085399084 0.05195762 0.02791367 -0.04830995 -0.184047
-0.12089763 0.35409197 -0.2324651 -0.025748096 0.14088863 -0.18294089 -0.12197967 0.245448
0.08081508 -0.1023171 -0.09382681 0.34597033 0.15357192 0.11294316 -0.3286436 -0.2402411
0.33531183 0.20404206 0.1857039 -0.19983326 -0.086882375 0.25773922 -0.27776346 -0.20438947
0.33280876 -0.3518378 -0.1434896 -0.24602117 0.20763183 0.32473305 0.15339048 -0.17784648
00000000: 73a5 04be 11d7 4dbe b700 e3bb 51f7 c83c
00000010: c1dd 8dbe 2197 68be 3e5f 683e ccbc 873e
00000020: 54b1 d2be 059a 003e 058f 2d3e 17d2 14bd
00000030: 098e 803e 1a5d 3f3e f4a2 b9be 18b7 7dbe
00000040: 5fc4 663e 8aa6 d5bd bfe7 1a3c 0626 4bbe
00000050: 041c 903e 1795 fe3d 2804 21be 2ba8 82be
00000060: 6726 ddbe 80b4 e2bc f93c 1bbe 608a 15bd
00000070: 11d0 4cbd 9756 79be 4d6b 863e fd0f 89bd
00000080: 4524 a73d 2964 dfbc 4dce 47be ebe1 6d3e
00000090: d71b 803d 465f 9c3e 6ce6 71be d397 803e
000000a0: 63c7 c73e 4333 8dbe d07f 7d3e 5205 58be
000000b0: 67d8 1ebe c2c5 193e 1077 a73e b025 683e
000000c0: 482f edbd 7e25 53be 571c d8bd 3bd7 8dbe
000000d0: eea8 9f3e 404f af3e 2d5b 96bc 6681 0d3e
000000e0: 818c 3fbe 2990 203e 7d33 933e 128b d63e
000000f0: 36e0 85be 1bc5 dcbd 24eb fe3d 0ddf 6b3e
00000100: 3ed1 5f3e ea4a 6b3e 6b44 313e e012 623e
00000110: 4e90 7a3e 0084 2a3d 4d87 9fbb 9eb0 d53d
00000120: 6292 43be 2514 80be fa15 913e eadc d53d
00000130: 0574 733e 436e 73be 15e0 6d3e acc7 09be
00000140: 5108 c7bc d6d3 8b3e ee0b 273e 9303 a6be
00000150: 63f5 07be 4eaa 953e b7e5 863e b6d6 8c3e
00000160: f7af 6d3e a9a7 6e3e f2fb a13d 28fb 56be
00000170: f3f0 1cbe 47d5 24be 79cf dbbd d8be 94be
00000180: 1514 89be a426 18be 6350 15be 76db 153e
00000190: 80a8 60be 82ad 53be 9219 163e e045 013e
000001a0: 4d0f 19be e21b d33d 96c3 153d f7b4 fc3d
000001b0: 1f80 75be e02e 5b3d d3f5 153e a268 35be
000001c0: 82f5 08be 485e 72be 3945 9d3e 4702 1abe
000001d0: e988 1b3e 5f62 5cbe f8f1 5d3e 559c 6ebe
000001e0: 2886 603e a7f1 88be fb7b 1dbe f4e5 86be
000001f0: ae0b 92be d0b4 703e beeb 71be 4a66 e43d
00000200: 45bc 893e 2b18 2c3e c994 88be c1ea ea3e
00000210: 6037 4ebe b712 16bc 418e a1be 813c 393e
00000220: 21cb c3be 921a ecbd 25f7 ad3e 5fac 3d3e
00000230: 97ac 743e 6cb9 e0be a19c 733e 4c3a 883e
00000240: 13c1 cabe 224d abbc 872a 5cbe d0d0 94be
00000250: 8c5b 95be b3b5 a33e e0fe 47be bbc4 98be
00000260: 4e09 29be 04bc 8bbe 258a e3bd 649e 48be
00000270: 8cd8 63be b86d 81bd 3e98 923d f552 a83e
00000280: a82e dd3c 8622 953e 1b0e 923e 34a0 7d3e
00000290: 40ff c1be ea1a a63e 6ba4 bf3e 9afa c5bc
000002a0: a863 193c c301 133e c590 a6be 40c7 4c3e
000002b0: a7d6 713e 39a7 a33e 0f35 333e 6df1 083d
000002c0: c0c6 ad3e a7b1 82be 100c 433e 4490 5fbe
000002d0: d566 773e 217c cd3d 495e 94be 416e 0ebe
000002e0: 315a 713c 5e00 8e3e 6b3a 89be 7876 9f3e
000002f0: 96cb 4b3e 55d8 4e3e 13d0 2f3e df4c 913e
00000300: 5447 debd ab3d 85bc 201c 7c3e 3e6c a53e
00000310: 98d9 4a3e a7fd cabd ab41 ae3d 2552 15be
00000320: 8519 353e a396 8bbe 6c3e 113d b01f c83b
00000330: c22e 85bd fec7 23be c333 b43e c427 3b3e
00000340: 6f0d a2be bce4 ff3d 6ba9 70be c98a 503e
00000350: 88cd 9a3d efe3 633e 90a2 6a3e 8373 5b3e
00000360: 3ded 833e 7cdf 8c3e fd49 aabc b7e5 aebd
00000370: 83d1 543d 35ab e43c a7e0 45bd d176 3cbe
00000380: 2d99 f7bd 8b4b b53e 550b 6ebe aced d2bc
00000390: 1c45 103e db54 3bbe 7ad0 f9bd b856 7b3e
000003a0: 6082 a53d a18b d1bd 4528 c0bd 0623 b13e
000003b0: f541 1d3e be4e e73d f943 a8be c301 76be
000003c0: fead ab3e 67f0 503e 2a29 3e3e 17a1 4cbe
000003d0: 63ef b1bd 65f6 833e 0337 8ebe 794b 51be
000003e0: e965 aa3e 1624 b4be f0ee 12be f9ec 7bbe
000003f0: 709d 543e 6943 a63e 6512 1d3e 631d 36be

fc.0.bias f4 [8]
0.3722635 0.21773627 0.46657547 0.44954202 0.56624335 0.35142294 0.40178338 0.4699093
00000000: 5299 be3e 42f6 5e3e fbe2 ee3e 5f2a e63e
00000010: 53f5 103f b5ed b33e 8db6 cd3e f497 f03e

fc.2.weight f4 [8, 8]
0.193037 -0.28570485 -0.006535839 0.069524385 0.25890893 0.3070432 0.27673808 0.4924932
0.28770024 -0.60350865 0.40516648 -0.12780207 0.09858785 -0.13697441 0.26043606 -0.22182141
-0.11402505 0.1630673 -0.6309943 -0.55297464 -0.13306247 -0.095246166 0.37541905 0.43101168
0.06650237 -0.34373504 -0.5154337 -0.15932281 0.0340948 -0.2977477 0.2973652 -0.3989909
-0.0818849 0.21442547 0.033571463 0.14941055 0.6276097 0.5602234 0.32565704 0.19123869
-0.09918437 0.5742428 0.55538815 0.3733485 0.27215686 0.07774906 0.07943424 0.5892083
0.5758088 0.0709526 0.6148888 -0.077957176 0.49571654 -0.19707836 0.2766293 0.6645314
0.24869938 -0.17207375 0.40800795 0.6422259 0.1621939 0.26481214 0.28611475 0.056598894
00000000: 7eab 453e e847 92be 972a d6bb cd62 8e3d
00000010: b68f 843e c434 9d3e 9db0 8d3e 1228 fc3e
00000020: 724d 933e 8b7f 1abf fb71 cf3e 8cde 02be
00000030: 6de8 c93d 0543 0cbe e057 853e 2725 63be
00000040: f785 e9bd 1dfb 263e d888 21bf bf8f 0dbf
00000050: 8741 08be 6c10 c3bd ed36 c03e 90ad dc3e
00000060: 6532 883d 0afe afbe 77f3 03bf 8525 23be
00000070: fda6 0b3d 6372 98be 4040 983e 8948 ccbe
00000080: 45b3 a7bd 5a92 5b3e 3b82 093d 14ff 183e
00000090: 08ab 203f cd6a 0f3f 85bc a63e 13d4 433e
000000a0: 2d21 cbbd 9301 133f eb2d 0e3f 8927 bf3e
000000b0: 2558 8b3e e63a 9f3d 6bae a23d 5bd6 163f
000000c0: 3568 133f 994f 913d 5a69 1d3f 03a8 9fbd
000000d0: 8fce fd3e e9ce 49be 5ba2 8d3e bb1e 2a3f
000000e0: 0dab 7e3e 1a34 30be 6be6 d03e eb68 243f
000000f0: 2816 263e 7595 873e a27d 923e 3ed4 673d

fc.2.bias f4 [8]
0.40666685 -0.034943055 0.18835115 0.07828619 0.4948855 0.44617763 0.19653283 0.0351441
00000000: a336 d03e 7320 0fbd 20df 403e 8354 a03d
00000010: a261 fd3e 6571 e43e e73f 493e 43f3 0f3d

fc.4.weight f4 [4, 8]
-0.037040338 -0.16533363 -0.0825535 0.29634392 -0.6301366 -0.18898453 0.20965245 -0.4228105
-0.30855778 0.32786906 -0.42127484 -0.030221645 -0.30876023 -0.08679746 -0.49284717 0.12755682
-0.036072128 -0.43699512 0.24542074 0.21178715 -0.07911159 0.14104652 -0.56278056 -0.55390257
0.27653396 0.2902662 0.2948947 0.17143054 -0.26533696 -0.48091674 -0.10487237 -0.26153082
00000000: 9cb7 17bd 384d 29be cf11 a9bd 64ba 973e
00000010: a250 21bf 2985 41be 22af 563e 9e7a d8be
00000020: 49fb 9dbe 74de a73e 56b1 d7be 6293 f7bc
00000030: d215 9ebe dec2 b1bd 7756 fcbe 419e 023e
00000040: 5ec0 13bd d3bd dfbe 934f 7b3e bbde 583e
00000050: 4205 a2bd 806e 103e 6312 10bf 8fcc 0dbf
00000060: dc95 8d3e c59d 943e 70fc 963e 7d8b 2f3e
00000070: 3fda 87be b83a f6be 53c7 d6bd 5ee7 85be

fc.4.bias f4 [4]
0.021677362 0.14057453 -0.024356188 -0.15064703
00000000: b994 b13c c5f2 0f3e a186 c7bc 3743 1abe
