GAN/WGAN_Generator.pt (torch, 4424 bytes, 4 tensors)

fc.0.weight f4 [8, 64]
-0.30344814 -0.39198953 0.35042396 -0.3252617 -0.4113254 0.3003411 0.20972413 -0.2985503
-0.36181384 -0.2587565 0.3964132 0.19881669 0.29236323 -0.23537607 -0.43412748 0.06483697
0.17652713 -0.37494937 0.21335271 0.2829437 -0.29253742 0.27966064 0.3017334 0.36267504
-0.15522878 -0.36401418 0.35198015 0.27855638 0.295454 -0.40158957 -0.25992852 0.39399278
-0.35872927 -0.3585223 -0.3057325 -0.21704316 0.33818874 0.3933292 -0.106592156 0.008942203
-0.21295395 0.14348581 -0.062967174 -0.22902088 0.38877067 -0.39591146 0.25562578 0.37717843
-0.105061434 0.08391286 0.07719286 -0.31447357 0.4004042 0.24073067 0.30816916 0.33456388
-0.2928873 -0.13939482 0.295776 0.32708466 -0.1529091 -0.25282395 0.08999588 -0.2834179
-0.13992605 0.15280591 -0.25013065 0.22358158 -0.28261864 -0.08869173 0.21862875 0.30465987
0.15178657 0.20863159 -0.20180514 0.19346122 -0.27934235 -0.14075746 0.24130414 0.31678993
0.19721228 0.20934418 -0.3203301 -0.29006213 0.3120805 -0.3357171 -0.3357111 -0.28036118
0.3256022 0.16563602 -0.27806512 0.26923496 0.019599732 0.16392882 -0.24774204 -0.17297839
0.22220705 0.30307138 0.30103737 0.34382692 -0.19673276 -0.22175884 -0.15622857 0.31458372
-0.237922 -0.20977025 0.29938865 -0.11356812 -0.31369302 0.088273965 0.038626913 -0.23935543
-0.15719518 0.2818569 -0.32649064 0.32560697 -0.22421972 -0.34196824 -0.34291425 0.19688846
0.23737203 -0.17477407 -0.32317865 -0.26897576 0.23334655 0.039877247 -0.35427713 -0.17422853
-0.19936831 0.29560888 0.31609842 -0.15979622 -0.27791807 -0.3144077 0.31592858 -0.26770005
-0.35596496 -0.14019665 -0.30743554 0.075080864 0.12392161 -0.12936431 0.38844103 -0.23279943
-0.12272695 0.27040502 0.28999624 0.007670057 -0.2808158 0.29725495 0.22132035 -0.05263948
-0.018633507 0.050799184 -0.009310042 -0.07522642 0.006823024 -0.11678209 0.34776497 0.21711655
0.23184195 -0.07002337 -0.30341738 -0.15933472 0.13767064 -0.27477163 -0.19891797 -0.06408279
0.16804394 0.2557081 0.011414506 -0.2736846 0.112841114 0.37476993 -0.28535795 -0.36002538
0.23445849 0.31279093 0.22115067 0.22907278 0.32365012 -0.07069026 0.15854158 -0.31605005
-0.24238421 0.27848426 0.32125384 0.18520595 0.3762774 -0.2389248 0.22496378 -0.36583957
-0.04060266 -0.18575536 0.18723974 0.16531137 -0.20184262 -0.24382289 0.16003898 -0.19118352
-0.095049165 0.2147997 0.00089741126 -0.27881008 -0.023540413 0.22589655 0.24795672 -0.024342356
-0.2612042 -0.17235123 0.06495488 -0.21810056 -0.1966558 -0.14934939 -0.24806161 0.015833274
0.23164713 -0.2094708 -0.26244804 -0.28649473 -0.2734527 -0.16696507 0.23453334 0.19878568
-0.19089653 0.11898758 -0.18206541 0.0525436 -0.22478032 -0.0032192906 0.21300447 0.23251471
-0.17831713 0.21514678 0.23911095 0.23009054 0.13352838 0.22959198 -0.13262765 -0.19243772
0.023986211 0.2076683 0.01279605 0.24880032 0.20738429 -0.25219318 -0.18166912 -0.2659925
-0.20441863 0.2089085 -0.15487012 -0.05573382 0.24063656 -0.110024124 -0.24167562 -0.18644771
00000000: 8e5d 9bbe dab2 c8be c56a b33e b488 a6be
00000010: 3e99 d2be 4fc6 993e ecc1 563e 96db 98be
00000020: aa3f b9be bb7b 84be acf6 ca3e 9a96 4b3e
00000030: a2b0 953e 6d06 71be f545 debe 3fc9 843d
00000040: 87c3 343e 5df9 bfbe 2279 5a3e ffdd 903e
00000050: 77c7 95be ae2f 8f3e cd7c 9a3e 8bb0 b93e
00000060: 4bf4 1ebe 1160 babe be36 b43e f19e 8e3e
00000070: bf45 973e 269d cdbe 5a15 85be 6cb9 c93e
00000080: 5dab b7be 3c90 b7be f888 9cbe 9040 5ebe
00000090: 1327 ad3e 7262 c93e fd4c dabd 5182 123c
000000a0: 9a10 5abe f2ed 123e eff4 80bd 7384 6abe
000000b0: f30c c73e e8b4 cabe 62e1 823e 881d c13e
000000c0: 732a d7bd 81da ab3d 4a17 9e3d ae02 a1be
000000d0: c801 cd3e 1a82 763e 59c8 9d3e f54b ab3e
000000e0: 53f5 95be 84bd 0ebe f46f 973e a477 a73e
000000f0: 3494 1cbe 2472 81be c34f b83d 271c 91be
00000100: c648 0fbe 2779 1c3e 2011 80be 92f2 643e
00000110: 64b3 90be 02a4 b5bd 37e0 5f3e 61fc 9b3e
00000120: f06d 1b3e 85a3 553e 02a6 4ebe b31a 463e
00000130: f605 8fbe b922 10be 6f18 773e 4a32 a23e
00000140: 04f2 493e 525e 563e 4f02 a4be 0683 94be
00000150: 04c9 9f3e 1de3 abbe 53e2 abbe 808b 8fbe
00000160: 55b5 a63e 7d9c 293e 8d5e 8ebe 2ad9 893e
00000170: 9e8f a03c f5dc 273e 17b0 7dbe 3f21 31be
00000180: 3f8a 633e 2c2c 9b3e 9221 9a3e 150a b03e
00000190: 5074 49be c014 63be 62fa 1fbe 1e11 a13e
000001a0: d3a1 73be 03ce 56be 7849 993e 6796 e8bd
000001b0: 5f9c a0be fbc8 b43d 4137 1e3d 9719 75be
000001c0: c6f7 20be 8c4f 903e c829 a7be f5b5 a63e
000001d0: db99 65be 7616 afbe 7592 afbe 219d 493e
000001e0: a711 733e f9f7 32be ac77 a5be 31b7 89be
000001f0: 66f2 6e3e 5356 233d d063 b5be f768 32be
00000200: 3527 4cbe 0c5a 973e a7d7 a13e 9fa1 23be
00000210: 474b 8ebe 0cfa a0be 64c1 a13e fb0f 89be
00000220: 0a41 b6be b68f 0fbe 3168 9dbe ffc3 993d
00000230: 9dca fd3d 1478 04be bee1 c63e f962 6ebe
00000240: 4458 fbbd 8772 8a3e 637a 943e 1a55 fb3b
00000250: 17c7 8fbe cd31 983e cda1 623e 7f9c 57bd
00000260: 4ca5 98bc ce12 503d 2589 18bc 4f10 9abd
00000270: ac93 df3b 732b efbd 400e b23e cd53 5e3e
00000280: fa67 6d3e 6a68 8fbd 8659 9bbe a428 23be
00000290: 88f9 0c3e deae 8cbe 27b1 4bbe d63d 83bd
000002a0: b613 2c3e 2cec 823e e803 3b3c 6320 8cbe
000002b0: 3e19 e73d d8e1 bf3e 701a 92be 3f55 b8be
000002c0: e315 703e 2226 a03e 5275 623e 0e92 6a3e
000002d0: 78b5 a53e 0ec6 90bd b958 223e 50d1 a1be
000002e0: 9133 78be 7d95 8e3e 627b a43e a1a6 3d3e
000002f0: 6ea7 c03e b4a8 74be e85c 663e 534f bbbe
00000300: fa4e 26bd a736 3ebe c6bb 3f3e 6247 293e
00000310: d5af 4ebe b5ac 79be 42e1 233e 9dc5 43be
00000320: 23a9 c2bd 74f4 5b3e 4040 6b3a 32c0 8ebe
00000330: d3d7 c0bc 6d51 673e 5ee8 7d3e 9f69 c7bc
00000340: 8fbc 85be d77c 30be 1007 853d c155 5fbe
00000350: 2360 49be 0cef 18be dd03 7ebe c8b4 813c
00000360: e834 6d3e 837f 56be 975f 86be 70af 92be
00000370: fe01 8cbe e4f8 2abe 8229 703e 798e 4b3e
00000380: 617a 43be c3af f33d 5b6f 3abe f537 573d
00000390: d02c 66be bcfa 52bb d81d 5a3e 5618 6e3e
000003a0: c498 36be 704f 5c3e 80d9 743e db9c 6b3e
000003b0: aabb 083e 291a 6b3e 8bcf 07be 650e 45be
000003c0: bb7e c43c 00a7 543e 86a6 513c 83c5 7e3e
000003d0: 8c5c 543e 771f 81be 7807 3abe 2b30 88be
000003e0: 1e53 51be 1cec 553e 4696 1ebe 2549 64bd
000003f0: 6e69 763e 5454 e1bd d079 77be 26ec 3ebe

fc.0.bias f4 [8]
0.21548809 0.20402786 0.4005004 0.09356238 0.37219927 0.5140477 -0.2268293 0.45925644
00000000: e9a8 5c3e aeec 503e 630e cd3e a29d bf3d
00000010: e790 be3e a198 033f f145 68be a923 eb3e

fc.2.weight f4 [4, 8]
-0.090102114 -0.10914915 -0.22073212 -0.4109629 -0.7057198 -0.6214385 0.0965597 -0.18675524
-0.60524124 -0.22823712 -0.047908887 -0.18061264 -0.31580642 -0.058162488 0.09581103 -0.48765787
-0.3761858 -0.42091894 -0.50747126 -0.12932792 -0.0057551274 -0.18011431 0.18088664 -0.24021973
0.024049561 -0.381867 -0.2655569 -0.116251476 -0.611365 -0.31250829 -0.112628326 -0.414662
00000000: 7587 b8bd 9789 dfbd 9a07 62be bb69 d2be
00000010: 0eaa 34bf 9816 1fbf 18c1 c53d c43c 3fbe
00000020: 17f1 1abf feb6 69be 1c3c 44bd 85f2 38be
00000030: 61b1 a1be ca3b 6ebd 9338 c43d 4bae f9be
00000040: 6d9b c0be b082 d7be a3e9 01bf 8a6e 04be
00000050: 8295 bcbb e36f 38be 593a 393e 29fc 75be
00000060: 9603 c53c 1284 c3be 13f7 87be 4115 eebd
00000070: 6b82 1cbf 1601 a0be aea9 e6bd 944e d4be

fc.2.bias f4 [4]
-0.07181169 -0.14115371 -0.5070307 -0.28023288
00000000: 0212 93bd 998a 10be c4cc 01bf af7a 8fbe
