RealNVP/RealNVP_model.pt (torch, 170509 bytes, 56 tensors)

layers.0.mask f4 [4]
00000000: 0000 0000 0000 0000 0000 803f 0000 803f
0.0 0.0 1.0 1.0

layers.0.t1.fcn.0.weight f4 [64, 4]
00000000: a288 9ab9 e5d7 a03d 4402 71be 3959 f6bd
00000010: 17ad 323c 55cb 783b 4429 873e f5db 67be
00000020: 2c64 a939 7385 843d 50e8 40be 3e3b 8fbc
00000030: cc2f ab3a 8796 443d 12fe 40be c247 9dbb
00000040: 5810 9e3c eeb7 423d 352a 59be bfa1 973e
00000050: 3b85 d3bc 7daa f727 33a0 d3bd a215 4abe
00000060: 4f62 5c36 00ab 173b b5ff b0bd 888f 7f3d
00000070: 352e e19d f723 aaaa 063f 84be 7c15 2dbd
00000080: 20de afbc ffbf 573d c8d9 fb3b 2f69 653e
00000090: c554 d516 c599 413d 779d 93be b666 513e
000000a0: 7c0c 25bb 3d43 47b9 89e8 6f3d 4ed7 8b3e
000000b0: 28ec a839 b20f c332 65ea 3c3e 0b6d f83d
000000c0: 0c84 0d3c ef7e 9f3d 7650 82be c47c 49be
000000d0: 2f84 383d 705f f6bb 567a 64be dfa6 acbb
000000e0: 4941 9e3c 1e81 2bbd de9d 23be eb54 5c3d
000000f0: b4d3 acbd e170 82b6 0a29 3cbe ef89 863e
00000100: 5bba 813c 767d 043d d9b5 0ebe 195d 353e
00000110: 1a4d c73a 1d96 adbc b6b7 30be d021 1cbe
00000120: f2c8 463d 4a43 12bd dfea 92be 6d95 1fbe
00000130: 78a8 dd1a 52d2 7e3b 9fa2 7a3e 2427 96be
00000140: ee5a c825 782f 3bb3 063d 2ebe bd9b 193e
00000150: b249 b028 df15 3139 40d5 2bbd afae 9abe
00000160: f339 a0bd f597 85b4 2054 85bc 16ea 2ebe
00000170: 803f 8f9a 9812 003c b5c3 08be 21eb 92bd
00000180: b8e8 e1bb cc5b 1bbd 58ff 363d 62e8 0fbe
00000190: 2308 b51b d460 1a36 a9e5 823e cfb9 88be
000001a0: 1c52 bb3c 37fa 203c a247 89be 777e c7bc
000001b0: 0936 8d3d e365 a53d 49ad 533d bffd 983e
000001c0: 3ef7 b43d 3a32 49bd 9740 edbd 2851 9dbe
000001d0: 79ec 803d 5af7 1dbd 9dca 43be 9641 debc
000001e0: eff1 849a d630 a5b4 7464 613e 2d3c 353d
000001f0: 5ab6 9a3d 016e 17bd f927 82be 64a1 82be
00000200: 3ecd d99a 823a 3cbd dd05 a3bd c5b6 173e
00000210: 6bbb d13c 5d55 0f3b 4ffc b03d 562d 5a3e
00000220: 87bb 829a 4e3c b5bd d412 a7bd 004d 64be
00000230: 567b 7c99 47ec 86a2 0a82 0bbc d276 3dbe
00000240: 7e94 3a3b d275 9aba 2b60 063e 0de6 103c
00000250: d2f0 c53b 811e 6ebd ddfc 673d a08d 6b3d
00000260: 0389 0d28 30a0 d039 fd8b 23be f470 8bbd
00000270: 7216 4e3c 84c1 323c 3d47 c4bd c1e6 c3bd
00000280: 0e6b 493d 5cfc 59bc 9954 1e3e 9b93 323e
00000290: 2342 661e 39ba d6bb 4c07 8fbe c3b8 8e3e
000002a0: cf42 523c 8872 843d a426 1b3e 57b5 463e
000002b0: 394b a33d 8110 433c 2966 bebb 4be1 843e
000002c0: 6e32 703b 968e 82a2 a619 5ebe e165 6b3e
000002d0: d323 37bb fc91 043d 9bb8 25be 929c 56bd
000002e0: 6190 31bd a008 7dbc 1db6 e3bd ef55 d63b
000002f0: 1203 d9bc dd10 44bd c708 873e ce00 4d3e
00000300: 2be8 cd3c 74ef 0dbd b523 8f3d 7d0b 10be
00000310: 2ced d5bc 4495 82ba 8499 ac3d 713b 59be
00000320: 3590 833c 9528 e53c 0a3f 343d 67f5 25be
00000330: a909 8d3c 0fd2 623d a9d8 163d 1c56 b63d
00000340: bb93 bbbc dc58 193d 63a8 1fbd d381 893e
00000350: caba a8ba 35ef 13bd e62f 00be 3a61 583e
00000360: 64b5 5730 3a57 9f3b c31f febd af23 95be
00000370: 3d11 bd18 db56 ab3c 3526 e6bd dd42 523e
00000380: b928 ecbb 41d4 5c3d 4b45 f43d f408 f73d
00000390: 0c59 f339 1cc2 183c 3172 d4bd 39c5 963e
000003a0: 83bc ab3d 5661 313a 448e ffbd d740 c83d
000003b0: 12e1 2138 be73 45bc fc93 a33d f15d 1ebe
000003c0: e450 d6a1 795b 98bc a3d6 69be 8569 43be
000003d0: e8ba 6dbd 2bc1 ab99 8645 a1bc 5127 a23e
000003e0: 958e 4f3d 0545 013b bd51 83be 8f41 913c
000003f0: f2ca 29b4 e2c3 32bd b37e 873e 07bc 84be
-0.00029474968 0.078536786 -0.2353602 -0.120287366 0.010905526 0.0037962992 0.2639867 -0.226425
0.00032308826 0.06470766 -0.1883862 -0.017484304 0.0013060509 0.047995117 -0.1884692 -0.004799814
0.019294903 0.04753869 -0.21207507 0.2961559 -0.025820365 6.8741116e-15 -0.1033329 -0.19734815
3.2839778e-06 0.0023142695 -0.08642522 0.06239274 -5.960478e-21 -3.0223022e-13 -0.25829333 -0.042256817
-0.021468222 0.052673336 0.0076858737 0.22403406 3.4465503e-25 0.047265787 -0.28831074 0.20449337
-0.0025184443 -0.00019003167 0.058571372 0.27312702 0.00032219407 2.2708125e-08 0.1844879 0.12130173
0.008637439 0.077878825 -0.25452012 -0.196765 0.045047935 -0.0075187013 -0.22312292 -0.005268916
0.01931824 -0.041871183 -0.1597819 0.05379192 -0.08438817 -3.8874427e-06 -0.1837503 0.2627711
0.015835932 0.03234621 -0.13936557 0.17711295 0.0015205473 -0.021189744 -0.1725758 -0.15247273
0.04853148 -0.035708703 -0.28694817 -0.15584345 9.1675634e-23 0.0038882685 0.24476098 -0.29326737
3.4756086e-16 -4.3582503e-08 -0.17015466 0.15000816 1.9571885e-14 0.00016888183 -0.041951418 -0.30211398
-0.07823553 -2.4883744e-07 -0.016275465 -0.17081484 -5.9246004e-23 0.007816933 -0.13355906 -0.071737535
-0.0068941973 -0.03792934 0.04467711 -0.14053491 2.9949196e-22 2.300415e-06 0.25565842 -0.2670426
0.022866301 0.009825281 -0.26812464 -0.024352295 0.06895072 0.08076074 0.05167893 0.29881093
0.0883622 -0.049120165 -0.11584585 -0.3072598 0.062951036 -0.03856597 -0.1912026 -0.027130883
-5.4984785e-23 -3.0769178e-07 0.22010976 0.04424684 0.07554312 -0.036970142 -0.25421122 -0.25513756
-9.008068e-23 -0.045954235 -0.07960103 0.14815815 0.025602063 0.002187095 0.08641874 0.21306357
-5.4069707e-23 -0.08849393 -0.08157888 -0.22294998 -1.3053002e-23 -3.657094e-18 -0.00851489 -0.18502358
0.0028469856 -0.0011784381 0.13122623 0.008843911 0.006040671 -0.05813456 0.056637634 0.05750811
7.856782e-15 0.000397922 -0.1597137 -0.068086535 0.012578594 0.0109103955 -0.095839 -0.09565497
0.04917436 -0.013304796 0.15461959 0.1743912 1.2189775e-20 -0.006552961 -0.27935255 0.27875337
0.012833311 0.064671576 0.15151459 0.19405113 0.07973332 0.01190579 -0.0058105183 0.25953135
0.0036651152 -3.538754e-18 -0.21689472 0.22988082 -0.0027944937 0.032365784 -0.16183703 -0.05239541
-0.04335058 -0.015443951 -0.1111872 0.006541006 -0.026490722 -0.047867645 0.26373884 0.20019838
0.02513512 -0.03465219 0.069892325 -0.14066882 -0.026114069 -0.0009962698 0.08427718 -0.21214081
0.016059974 0.027973453 0.04400543 -0.16206895 0.01721652 0.05537611 0.036827717 0.08903143
-0.022897592 0.03743826 -0.038978945 0.2685686 -0.001287305 -0.036116797 -0.12518272 0.21130839
7.8474316e-10 0.004862693 -0.12408402 -0.29128787 4.887276e-24 0.02091544 -0.11237756 0.20533319
-0.007207003 0.05391336 0.11927279 0.120622545 0.00046414917 0.009323623 -0.10373343 0.29447344
0.08385565 0.00067665183 -0.12478307 0.09777992 3.8595004e-05 -0.012051521 0.0798721 -0.15465523
-1.4522616e-18 -0.018598305 -0.22835784 -0.19083221 -0.058039576 -1.7759006e-23 -0.019686472 0.3167062
0.050673086 0.0019724977 -0.256483 0.017731456 -1.5813183e-07 -0.04364384 0.2646385 -0.25924703

layers.0.t1.fcn.0.bias f4 [64]
00000000: 8f0d 613e 57b7 f73e 1285 dfbd 299e 0b3f
00000010: 4181 b9be ef42 aebe 2c03 a13e 835d 7a3e
00000020: 7b0d 2dbe 4d34 133c badb 973e a651 c3bd
00000030: dfcb 65be f8b4 b83e 04f1 61be 5330 833e
00000040: e6ed 22be fb69 e1be 4031 d23e a947 9bbe
00000050: 5734 dc3d 4f45 293e d99e f1be f301 88bb
00000060: df1f e6be 2942 95bc 7d41 813e 6bae a6be
00000070: 8cb0 a83d 5e74 83be fdce 5d3c 36aa 8c3e
00000080: 038a 033f b057 023f f39b 5cbd 2f97 47be
00000090: f117 35bd d423 aabe 4bd3 25bd c865 043f
000000a0: 38e9 1a3c 9c13 a7be 0992 5e3e 30e9 853e
000000b0: 63a4 e7be dd83 803e ad46 36be 77ab 2c3e
000000c0: e8b8 cfbe 9482 c3be a8a0 133e c929 393d
000000d0: ee93 a13e 61b3 9c3e 519e 453d 100e 6d3e
000000e0: c460 923d 5d34 e53e 7587 f6be b9a7 57be
000000f0: 0910 933e 2933 abbe ac9d d3be a2e6 d7be
0.21977828 0.48382065 -0.10914053 0.5453821 -0.36231425 -0.3403544 0.31447732 0.24449734
-0.16899674 0.008984637 0.29659826 -0.095370576 -0.22441052 0.36075568 -0.22064596 0.25622806
-0.15911064 -0.4402617 0.410532 -0.3032811 0.107521705 0.16530345 -0.47191504 -0.004150623
-0.4494619 -0.018220024 0.25245276 -0.32554945 0.08236799 -0.2567472 0.013538119 0.2747361
0.51382464 0.5091505 -0.053859662 -0.19491266 -0.044212285 -0.3323046 -0.040484708 0.51717806
0.009455018 -0.32632148 0.21735395 0.2615447 -0.45242605 0.25100604 -0.17800398 0.16862284
-0.4057076 -0.3818556 0.14416754 0.045205865 0.31558174 0.30605605 0.048246685 0.23149896
0.07147363 0.44766513 -0.4815022 -0.21060075 0.2872317 -0.3343747 -0.41331232 -0.42168146

layers.0.t1.fcn.2.weight f4 [64, 64]
00000000: 1e26 123e 59b2 643c 4001 213c 68aa fabd
00000010: 943b f8bd 9fe6 4b3e 38d0 5a3e bcb7 ff3d
00000020: 3051 24be 7a04 aabd 30fb 873d 86a3 013e
00000030: a6cf 5e3e 822f 553d 8add fb3d bb84 793e
00000040: bfcf b03c 1419 07be df1b 643b 1e93 21be
00000050: 9562 1d3e aa9a 983c 7ce7 34be 09c0 f9bc
00000060: 3aa7 71be 3180 70be ba3d f53d 8a8a 3abe
00000070: 877e 4f3d 2b30 0c3e 7501 343e 4f96 f6bc
00000080: d86e 083d fb85 02bd 79bb cebd def4 123e
00000090: 036d cf3c 09d0 65bb 4caa e83d 6efd 683d
000000a0: bc9e b03c 93d8 b13d 00eb e1bd 5e17 05bd
000000b0: f938 233e fb34 ffbd d837 703d 374f e4bd
000000c0: 4aa6 203d db54 4ebe fb41 4e3c b9ee b23d
000000d0: 4758 133d 5d4b 27bd 3041 7b3d 23e1 193e
000000e0: c7f6 9c3d dc88 9abc 1ae3 47be 8ffb 3dbe
000000f0: a298 21bd 9451 18bc cdd9 38bb 442f 8f3c
00000100: b2d8 07bd 4fd1 7a3d 8e1a 5dbe bf9a 51be
00000110: fa6e 28be 66b7 0b3e 17d6 66be 89ad 73bc
00000120: 8906 1dbe 1648 eebc 5603 bf3d 19f8 4cbe
00000130: 1b39 fe3d 2cdd 3d3e 7972 17be f488 54be
00000140: 32a7 20bd 1f6f c8bd edac 003e c163 e33c
00000150: 45a5 af3d ade0 2dbe 5b3c 0dbd 6ff5 2b3e
00000160: 8bc0 31be 33e1 543e 9fb4 42be 9156 183e
00000170: 5363 1ebe 9b05 643c 37d4 4ebe 912f 4d3c
00000180: 5f1f 59be c8df 493e 2342 1cbe b205 17bd
00000190: e214 65bd 2fbd 20be 492c 403e 66e1 dabd
000001a0: b148 cdbd b279 c8bd 9116 49be 87be a83d
000001b0: 3360 99bd e502 f93d 9f97 2dbd abcf 2c3e
000001c0: c9cc ae3b d320 8c3d 96f0 3f3d 7816 ae3c
000001d0: 9656 3d3e 4961 5ebb 8d0c 09be 07e2 2ebe
000001e0: a5c2 b7bd 8c3d 35be 7cf7 673d 1ab7 023e
000001f0: 8f1a d5bd 60f7 48be f191 afbd 54c9 b5bd
00000200: cddd 26bd 0b40 453e 364b 163c f86d 353c
00000210: 2667 953d 2eab 4c3c 1f4f 65be 7932 013e
00000220: fa87 c7bd e9d4 383d 1dba 12be 92ac 023e
00000230: b09e 0fbe 9d79 163d cfb2 a03d f7d6 af3d
00000240: f86b e53d 9ab4 10be d166 233e 3428 393e
00000250: 1012 bf3d 28d6 153e ccfb 39be 9293 253d
00000260: f67f 413e 5630 c13d 6c29 e73c d866 5a3d
00000270: 7540 36bd 151a 3ebe c0f8 0ebe 773b 5fbe
00000280: 44d0 4ebe e7f6 b9bd de83 18be 729d a1bd
00000290: fc64 b2bd 7488 7e3d 3473 58be 8dac 2abd
000002a0: a1e0 b53d d4b7 4bbe fc58 1ebe 2cb8 0f3e
000002b0: aa4f 9a3c 0083 a13d 967e a9bd 99df 4cbe
000002c0: dac7 e9bd 1169 96bd e436 c03c 212e 593e
000002d0: 0973 3ebe 774d 38bd f2b5 303e 610b 93bd
000002e0: 40fb 34be 246b 16be 84d0 0cbe c6a9 283e
000002f0: 94bc 833c 9d4a 403e f089 99bd 31cb 45bd
00000300: cf59 1dbd 1107 133e e50e 0d3e f9b0 9d3d
00000310: a951 eb3c 27fc 073c 0f5e 97bd f8d3 debd
00000320: bbb7 243e 77ba 47be 2afd 62be bad2 c23d
00000330: e11e f3bb 29cb ca3b 267c cb3d e881 523d
00000340: f609 2f3d bef0 263d 2a77 2abe 7001 05bd
00000350: 0088 093d 6bac be3d 7bba 3cbe 30ca 043e
00000360: 6ca4 093d 8c70 91bc 3c06 923d c231 443e
00000370: 7766 b13d 854d 153c 9337 333e e3ce 1e3e
00000380: 8817 3f3e ad40 1cbe 94ce d0bd 7a45 2dbe
00000390: 39cb 36be 9b36 74bd 898f f7bc fc4f 3c3d
000003a0: 49fb 163d f37d a9bd 817e b8bd b685 dd3d
000003b0: c012 323d affb ba3d 58a1 7e3d 253d 433e
000003c0: 168f 09be d34d 42be 9958 2a3e 856b 35be
000003d0: 0631 5ebd dc24 0a3e aff0 103e 23ed 143e
000003e0: 5fcd b73d 6e00 ecbd 49d9 043d 8487 a5bd
000003f0: d670 f13c dc02 17be 91c9 9bbd 855a a6bd
0.14272353 0.013958537 0.009826958 -0.12239534 -0.121207386 0.19912194 0.21368492 0.124862164
-0.16046596 -0.08301635 0.06639707 0.12660035 0.21758899 0.05204726 0.122981146 0.24367039
0.021583436 -0.1319316 0.0034806652 -0.15778777 0.15369637 0.018628437 -0.1766643 -0.030487077
-0.23598948 -0.23486401 0.11974664 -0.18216911 0.050657775 0.1369025 0.17578681 -0.03010097
0.033308834 -0.031866055 -0.10094351 0.14351222 0.025320536 -0.0035066626 0.113606066 0.056882314
0.021560065 0.086838864 -0.11031151 -0.032492988 0.15939702 -0.12461277 0.058647007 -0.111479215
0.039221086 -0.20149557 0.012588973 0.08736939 0.03597286 -0.040843356 0.061341465 0.15027289
0.076642565 -0.018864088 -0.19520226 -0.18552993 -0.039452203 -0.0092967935 -0.0028205991 0.017478593
-0.03316564 0.06123477 -0.21592161 -0.20469187 -0.16448584 0.1364418 -0.22542606 -0.014872917
-0.15334524 -0.029087108 0.09326808 -0.20016517 0.12413236 0.18541402 -0.14789762 -0.20755368
-0.03922195 -0.0978682 0.12565966 0.027757527 0.085764445 -0.16980238 -0.034481388 0.16792844
-0.17358606 0.20789032 -0.19014214 0.14876772 -0.15467577 0.013917352 -0.20198141 0.012523548
-0.21203373 0.19714272 -0.15259604 -0.036870666 -0.05592812 -0.15697168 0.18766893 -0.106875226
-0.100236304 -0.097888365 -0.19637515 0.08239465 -0.07489052 0.12158755 -0.042380925 0.16876094
0.005334471 0.06842198 0.0468603 0.021250948 0.18490061 -0.0033932498 -0.13383694 -0.1707841
-0.089726724 -0.1769926 0.056632504 0.1276516 -0.10405456 -0.19625616 -0.08572758 -0.08876291
-0.04073887 0.19262712 0.009173205 0.011073582 0.07295065 0.012491984 -0.22393464 0.1261691
-0.09742732 0.045124922 -0.14328809 0.12761143 -0.14025378 0.036737073 0.07846605 0.08585923
0.11202234 -0.14131394 0.1595719 0.18081743 0.09329617 0.14632475 -0.18162459 0.040423937
0.1889647 0.094330475 0.028217994 0.053320736 -0.044495065 -0.18564637 -0.13962078 -0.21800028
-0.20196635 -0.09080296 -0.14894053 -0.078913584 -0.087106675 0.06214185 -0.21137697 -0.041668463
0.08880735 -0.19894344 -0.15463632 0.140351 0.018836815 0.078863144 -0.082760975 -0.2000717
-0.11415072 -0.073442586 0.023463674 0.21209003 -0.1859857 -0.04499575 0.17256907 -0.07179905
-0.1767397 -0.14689308 -0.13751417 0.16471013 0.016081132 0.18778463 -0.074970126 -0.04828948
-0.038415726 0.14358164 0.13775213 0.076997705 0.028725462 0.008299864 -0.07390987 -0.108802736
0.16085713 -0.19504724 -0.22166887 0.09512849 -0.0074194525 0.0061887694 0.09935789 0.05139342
0.04273411 0.040756933 -0.1664702 -0.032472074 0.033576965 0.0931023 -0.18430512 0.12967753
0.03360407 -0.017753862 0.07130095 0.19159606 0.08662122 0.00911272 0.17501669 0.15508609
0.1866132 -0.15259047 -0.10195652 -0.16921034 -0.17850961 -0.05962239 -0.03021981 0.045974717
0.036860738 -0.08275976 -0.09008504 0.10816519 0.043474913 0.09130036 0.06216559 0.19066294
-0.13433489 -0.18975 0.1663536 -0.17716797 -0.05424597 0.13490623 0.14154314 0.14543585
0.08974718 -0.115235195 0.03243378 -0.08082488 0.02947275 -0.14747185 -0.07606805 -0.08122734

layers.0.t1.fcn.2.bias f4 [64]
00000000: 0c30 fc3d da5d 963c ca63 7fbd 4fc1 8fbd
00000010: ce31 083e d684 953d 8b6b c53b e0e9 293d
00000020: 064f 103d 6b6b f6bc 5ec5 3e3d 1131 fbbd
00000030: baf2 1abc 5e81 02bc 80d8 d33d b7c8 06be
00000040: 1549 1c3d e21a 78bd 6269 4d3c 46b4 1c3d
00000050: b093 993d eb3c e6bb 4947 dd3c 1b31 3d3b
00000060: 2a45 9238 7bdb e33d deff 09bd 5d12 b23d
00000070: 3200 c43c 827b 0ebe 6303 e83c 818f 833d
00000080: 2aba a3bd 5a4c c5bd 46be fe3c 5850 a73c
00000090: c56b d63d 9954 e43c 8c48 97bd d2cd c53d
000000a0: 5b35 d7bd 02eb 963d 4bc2 ddbc 1b39 5ebd
000000b0: 50ae f9bd c313 bcbb 992c debd 7ba6 a7bd
000000c0: 5a4e 363d fdf9 d13b ff36 86bc 37fb f63d
000000d0: ded4 e23d 0efd 96bd 6bbe 8fba fa39 3a3d
000000e0: 2308 d13d 39f0 9ebd 0e8c a63d f021 813d
000000f0: 6402 903d f41a 9e3d 05ed b3bd 48fc c33d
0.12313852 0.018355299 -0.062351026 -0.070192926 0.13300249 0.07300727 0.006024783 0.041482806
0.035231613 -0.030080518 0.046574943 -0.12265218 -0.009457285 -0.007965414 0.103440285 -0.13162504
0.038155634 -0.060572512 0.012537332 0.03825786 0.07498872 -0.007026305 0.02701153 0.002886838
6.974705e-05 0.11125847 -0.03369128 0.08694909 0.023925874 -0.13914302 0.028321927 0.064238556
-0.07994492 -0.096337035 0.031096589 0.020424053 0.10469774 0.02787237 -0.07386884 0.09658398
-0.105082236 0.07369043 -0.027070185 -0.05425368 -0.121914506 -0.0057396605 -0.1084835 -0.081860505
0.044508316 0.0064079748 -0.016383646 0.12059634 0.110757574 -0.07372485 -0.0010966783 0.045465447
0.1020663 -0.077606626 0.08132182 0.06305301 0.07031706 0.07719985 -0.08785442 0.09569603

layers.0.t1.fcn.4.weight f4 [4, 64]
00000000: ed29 9dbd 562f a6bd ab28 1b3e 7b81 09be
00000010: ed2c 85be 63c7 b43d a6ca 38be 70fa 6c3e
00000020: 08bc 44bd 2c7e 493d 1e0b 71be ed23 ee3d
00000030: 0d0c b83e e3cb 05be e15d 093e a9d3 983d
00000040: 6601 c13d f2d2 a73d dadd a4bd 8cf6 fe3d
00000050: 61be 75be 5f78 423e 626b 8d3e f4b2 d13c
00000060: be13 8d3e f307 88bd 0d2b cbbc a282 8ebe
00000070: 0f62 d93c cd85 863e 6d39 a53d 6f9b 483e
00000080: 9d7b 7bbc cdfe 6c3e 00a0 82be 53df 8b3e
00000090: 8960 ff3d d358 b9bd 45c8 4fbe eb66 c1bd
000000a0: 385e 793e 4f05 2abe 3056 0ebe 6689 23bb
000000b0: ea03 8abd 9d1e 0a3e 9259 40be fb00 7c3c
000000c0: a04c 34be f98f 2cbe 9a22 cf3d fd2e 123e
000000d0: 886a b9bb f1d9 d43d 6d85 28bd d015 573d
000000e0: 7cd3 713e 0e34 90be 7c38 4fbd 39db 863e
000000f0: b4c7 e63d 2e2c 58be 5003 843d 6f2e 913e
00000100: 8b94 8ebe 3164 223e c055 093e f158 9cbe
00000110: 54a4 21be d501 1fbe 49fb 43bd 9b0d 5fbd
00000120: acd0 4dbe bfd3 ad3d e63d ad3d 8c4c 913e
00000130: abd4 093d 3dbd 863c 08a9 8c3e ac3c f63d
00000140: 6d89 4f3e f462 17be 559b 793e a7cb 6abe
00000150: 9289 8f3b 1ade 9f3d e7a0 19be 00cf 963e
00000160: e5fa 88be 548f 2a3e faec 4b3e de71 cb3d
00000170: 0ed9 85be 9d2d ee3c a56f ddbd 7203 d23d
00000180: 28c7 e23c c7ee 8dbe a140 273e eb0e 73be
00000190: 2ae8 873d df44 373e 6233 0a3e e4f5 20be
000001a0: 6233 053e 1ba2 163e fff6 8bbd 7281 833e
000001b0: 79e5 d33d 8399 613e 6f4c 6dbd e556 ef3d
000001c0: a1fe bfbd 1aff 90be 6b46 d0bc cf21 96be
000001d0: a6fe 84be 6a62 1ebe f04e 01be 39f9 6ebe
000001e0: 3422 573e 3d19 0a3e f2ab 63be f46a 4c3c
000001f0: f9d3 83be f883 c33d 3cd4 943e c9f9 92be
00000200: 8cf6 da1d 63e7 0e3b 5aa2 da39 fd8f 2032
00000210: ffe9 b43d 06cd 9218 d595 0939 7891 fdbc
00000220: fadc cbb8 6049 693a 6791 6439 4a7a f83c
00000230: b42f ff3b 240f 019a fadb 5499 715c b4bd
00000240: 0e8c 8a38 b129 75ba 26b0 ca3b 298d 88a8
00000250: 843f 753c 8c19 373c 6f71 973b 40ca 2a38
00000260: 9f74 40bd c486 3bbd 68e0 133d fc62 62b9
00000270: 7223 f5bb 6c2e 2cae a7e5 32b9 96da 33bd
00000280: bf83 253d 715f 269c 7d58 0c2e 63ad 85af
00000290: a66e 9b3c fc7c 96bd e598 c6b6 72b3 d03b
000002a0: f8ae 38b8 2081 5a28 f771 b3ba e0e7 40bd
000002b0: 4f69 4bba 143c 8f3c 19e6 419b 5bde 34bb
000002c0: 497e 0b3d 3144 22bc 51d1 07bb 2516 c11b
000002d0: 7903 d915 79c3 1a1a 8bd2 373c 4a0a ddbc
000002e0: 1d9c f1b9 2c8f 83bd d298 ba3c 5e3a 7bbb
000002f0: 85c0 7a3c a042 853d 705e eb3a 0f67 c53a
00000300: f71d 383d 15c0 1ebd a076 ec27 cf08 593c
00000310: 2c0e 2f3c f3e1 9a22 a61c f831 4409 972c
00000320: 7aa9 9cbd 9388 1bac 29ae 58bc 14b7 9619
00000330: eb6f 181c 6b01 993a 182a 94bc 8001 cab6
00000340: 23e6 8838 7b98 a7b7 9aba 983d cc52 e8b7
00000350: 4d65 6bbd 7c18 2a3a 8499 1a9b d77e ab3c
00000360: d82b 8439 c428 b31e 8123 17b1 f2ad 7abd
00000370: cea4 2a3d 2c7f 1dbd 7a5e bc35 8967 739a
00000380: 603c 9aba 61ec 413c 2dd1 313c 0c51 61b9
00000390: 0ec4 433c 7563 d6b6 fcdb 041d 63bb 98bb
000003a0: 5b12 823d 17f9 37bd 3a25 0123 50a1 163a
000003b0: d08c 13bd 0ff8 3dbd 5957 ba3a 3f4b e69e
000003c0: ffa1 d514 1655 35bd 53f6 899a 115a c5ba
000003d0: 9794 2cbc 2b6e 173a 1020 2bbd 0e41 9ebd
000003e0: d5fe 923d 0360 e034 45b8 a1bd 968b 4819
000003f0: d9ac edbb afba 9b3d 451a 67b1 3a66 90bb
-0.07674012 -0.08114497 0.15152232 -0.13428299 -0.26010838 0.088270925 -0.18046054 0.2314241
-0.048030883 0.049192593 -0.23539397 0.11627946 0.35946694 -0.13066058 0.13414718 0.07462246
0.09424095 0.081945315 -0.08050127 0.12449369 -0.23998405 0.1899123 0.2762099 0.025598027
0.27554125 -0.06642141 -0.024800802 -0.2783404 0.026536016 0.26273957 0.08067594 0.19590543
-0.015349296 0.23144074 -0.25512695 0.2731882 0.124695845 -0.09050145 -0.2029124 -0.09443458
0.24352348 -0.16603588 -0.13900065 -0.0024953722 -0.06739028 0.1348824 -0.18784168 0.015381093
-0.17607355 -0.16851796 0.101140216 0.14275737 -0.0056584515 0.103931315 -0.04114287 0.052511036
0.23615831 -0.28164715 -0.050590977 0.2633913 0.11268559 -0.21110603 0.06445944 0.2835574
-0.27847704 0.15858532 0.13411617 -0.30536607 -0.15785342 -0.15528043 -0.047847066 -0.054456335
-0.20099133 0.08487653 0.08459072 0.28378713 0.03365008 0.016447658 0.2747271 0.12023291
0.20267268 -0.14783841 0.2437566 -0.2292925 0.0043804133 0.078060344 -0.15002786 0.29454803
-0.26753917 0.16656238 0.19914618 0.09933828 -0.26142162 0.029074484 -0.1081231 0.102545634
0.027682856 -0.27721235 0.16333248 -0.2373616 0.06636079 0.17897366 0.13496163 -0.157188
0.13007882 0.14710276 -0.0683422 0.25684696 0.10346503 0.22031216 -0.05793422 0.11686496
-0.093747385 -0.28319627 -0.025424203 -0.2932267 -0.2597553 -0.1546723 -0.12627769 -0.23337258
0.21009141 0.1348619 -0.2223356 0.0124766715 -0.2574766 0.095466554 0.29068172 -0.28706196
5.7959043e-21 0.0021805398 0.00041701162 9.345965e-09 0.08833694 3.7947136e-24 0.00013121155 -0.030953154
-9.7209544e-05 0.00088991784 0.00021797941 0.03033175 0.007787669 -2.6688805e-23 -1.1004567e-23 -0.08806694
6.60644e-05 -0.0009352221 0.0061855493 -1.5160252e-14 0.014968757 0.011175524 0.0046216766 4.071952e-05
-0.04698622 -0.04578282 0.036102682 -0.00021589914 -0.007481032 -3.9149503e-11 -0.00017060955 -0.04390963
0.040408846 -5.504815e-22 3.1910908e-11 -2.4315758e-10 0.01897366 -0.07348058 -5.918659e-06 0.006369048
-4.403197e-05 1.21294305e-14 -0.001369058 -0.047096133 -0.00077595277 0.017484702 -1.6038934e-22 -0.0027598354
0.03405598 -0.009903953 -0.0020724128 3.1943482e-22 8.765108e-26 3.2004355e-23 0.011219631 -0.026982445
-0.00046083416 -0.06423792 0.022777949 -0.003833435 0.015304689 0.06506848 0.0017957222 0.0015060621
0.04495045 -0.038757402 6.563177e-15 0.013246729 0.010684531 4.1981017e-18 7.221007e-09 4.292707e-12
-0.076495126 -2.2102639e-12 -0.013225117 1.5583581e-23 5.043723e-22 0.0011673396 -0.018086478 -6.0202437e-06
6.527852e-05 -1.9978956e-05 0.074574664 -2.769511e-05 -0.057469655 0.0006488634 -1.2788185e-22 0.020934505
0.00025209668 1.8969222e-20 -2.1993574e-09 -0.061201043 0.041661076 -0.03845136 1.4034588e-06 -5.0334857e-23
-0.0011767261 0.011836142 0.010853094 -0.00021487864 0.011948599 -6.3892753e-06 1.7583784e-21 -0.00466101
0.06351157 -0.044915285 7.000987e-18 0.00057460833 -0.03602296 -0.046379145 0.0014216705 -2.4383318e-20
2.15714e-26 -0.044270597 -5.705983e-23 -0.0015056749 -0.010533473 0.0005776609 -0.041778624 -0.07727252
0.071775116 4.179311e-07 -0.07896475 1.0367947e-23 -0.007253271 0.076039664 -3.3629857e-09 -0.0044067176

layers.0.t1.fcn.4.bias f4 [4]
00000000: 3d8d b03d e0fd cc3d 784e e519 148d 9135
0.08620689 0.1000936 2.3709738e-23 1.0844401e-06

layers.0.s1.fcn.0.weight f4 [64, 4]
00000000: a09d 5738 a80a 8739 a6bc 873a 599e 013e
00000010: 1e8e 1020 4d58 92bd 8908 2c3c f93e 313e
00000020: d1a9 c93c 3415 61bd 4a02 b2bd 6762 2a3e
00000030: 38e4 359c eea8 41bb c935 80be a9f1 153e
00000040: 0f76 43bd 9585 e93c 3047 373e a7d7 a1bc
00000050: 5760 a13d ceed d5ba 2854 713e 22c5 503e
00000060: a563 8e32 b5d9 c219 7e4e 153e 490f 833e
00000070: 5209 cbbb 2a7e 35bc f476 903d fbba 363d
00000080: 6248 f33b 279e 9b3d 0782 05be e1a0 aa3d
00000090: 724d 90bb a478 f5b9 e011 383e 3d53 25be
000000a0: 300f 993d 597b 5124 b3b6 b7bd 9e67 46be
000000b0: c78c 58bd efcf a2bc 37d7 6a3e fafa 40bd
000000c0: 4d4c aebd 2f8e 8ebd f721 a7bc 61c1 f7bd
000000d0: 7a08 a3bd ea99 8a99 a3ac edbc c90b f83d
000000e0: a209 6e3b b660 9a3d 7390 ab3d 17be 273e
000000f0: c338 dd39 9f7d 693c d148 5a3e aba0 323e
00000100: 9556 a2bc f497 399a 79e6 7bbe a06a 80be
00000110: 5eed 993a e3d5 5438 860e 023e c5e9 c03d
00000120: 5e3e f0bc dbb0 8218 ac1f 903e 48ad 71bd
00000130: 7b58 76b8 71cd 839a 150c 573d 28cd 5dba
00000140: de8e e025 901c 3d3d 4762 a03d 8f03 84be
00000150: cae7 1ebd ac8a 1ebd 0cff a83d 9bf3 2d3e
00000160: 8419 b3bd 0353 a8bd 0872 7d3d 9645 e4bd
00000170: 0983 0a3d 604f 803d 0c3e 453e 8e9d 57be
00000180: 8115 6d1f 2171 3d3c 0858 7e3e 15d0 20be
00000190: 072e 6b37 9698 fbbc 8fc6 d7bd 7776 813e
000001a0: 793d 553a ece3 06bb 2368 60be fce4 0e3e
000001b0: e5b9 693d 7f98 32bc 632c 97be 8c03 54be
000001c0: 9acf 42bd 74de 02bb 789d 743e fe83 47be
000001d0: 639b a93d e63c ac3c ed2c 61be d95f 1b3e
000001e0: bc65 0fbd 3108 0aba 8d60 b53c 1df9 67bd
000001f0: 293d 1022 a53e e934 19e6 613e 67a3 79be
00000200: 0151 2dbd 3f76 adbd d697 8b3d fbb2 da3d
00000210: d475 f0bc f6ee 93bc e56b 37be b392 90be
00000220: a66c a03c 6b71 463d 0618 a83d a7a7 8abe
00000230: bebf 863a 9853 0c1a 891f 283e b1ca 33bc
00000240: ab39 863d 0db1 93bb c422 8f3e 25f6 913e
00000250: eed7 1e3c 39d2 98bb 0b7f 583c e9f2 863e
00000260: b69d 1d37 93ae 9639 0b07 84bd 5d82 22be
00000270: c198 191a 1963 83bc 20cc 8b3e 2464 62be
00000280: ff62 473b 55d9 d13a d432 a5bd bbd4 03be
00000290: 0a72 7ebb df37 22bc b15c cbbc 78c6 3cbd
000002a0: 8547 159d 0da1 083d 0aff 813e 8ad4 32be
000002b0: 6608 1ab9 6f12 84bb 27e3 f7bd 9bb0 1cbe
000002c0: dda9 373a 363f 1fbd a0b4 503e 9d7a b63c
000002d0: 6684 8cbd 733b 933c ef97 833e c772 353e
000002e0: bc16 a1bb c95c 0dbd f148 7e3e e829 a93d
000002f0: b8df afbd d068 9437 d959 15be 28d7 2dbd
00000300: 89f6 89bc 4342 91bd d884 d6bd e758 1e3e
00000310: 1bf7 4839 6ca1 b6bc e371 4bbe 93a1 79be
00000320: 9ad8 caa0 a3e6 25bd 1de5 90bc 9e6f 933d
00000330: afdc d2bc b5ef c4bc 477e b73d 9df3 82be
00000340: 578d 793b c24c 76bc 265a 293d 793c 143c
00000350: 564e 193d 18e4 d8bc 3637 f23d fe62 3e3d
00000360: c099 343c f15b b29e d955 9f3e 4353 913e
00000370: af47 9b3d 89f2 05ba 8601 263e 8407 7dbe
00000380: 0078 d13b e196 b73c 78a0 123e db14 1abe
00000390: 2e35 bf39 900a 713c 52a7 613e b5ad 293e
000003a0: 06a8 3fb1 a8c7 8cbd 939a 7fbe 2912 61be
000003b0: aa68 913b 98dc 9a3c aabd d9bc 5ae3 72bd
000003c0: c2bc bebc 9723 183d b58c fbbc 14ec 843e
000003d0: 0273 91bd f1a1 9636 172c de3d fc0e c4bd
000003e0: 4d32 cabc 7982 c338 e0a8 1f3e 9e37 6e3e
000003f0: 8448 f21b 4ed8 3abc fdf1 96be 2b10 08be
5.1406794e-05 0.00025757146 0.0010355904 0.12658061 1.2244297e-19 -0.07145748 0.010500082 0.17309178
0.024617108 -0.05495186 -0.08691843 0.166391 -6.018284e-22 -0.0029550153 -0.25041035 0.14642967
-0.04772001 0.02850608 0.1789825 -0.019756151 0.078797035 -0.0016321482 0.2356726 0.203877
1.6576289e-08 2.0147061e-23 0.14580724 0.255976 -0.0061961794 -0.011077443 0.070539385 0.044611912
0.0074244 0.075985245 -0.13037883 0.083314665 -0.0044037635 -0.00046819926 0.17975569 -0.16145034
0.074736 4.542413e-17 -0.08970394 -0.19375464 -0.05286863 -0.019874541 0.2293366 -0.04711435
-0.08510647 -0.06960713 -0.020401938 -0.12097431 -0.07960601 -1.4331031e-23 -0.029012984 0.12111623
0.003632166 0.075379774 0.08377161 0.16381107 0.00042194696 0.014251142 0.2131684 0.17444102
-0.019816676 -3.837985e-23 -0.24599637 -0.25081348 0.0011743715 5.0743936e-05 0.12700853 0.09419588
-0.029326614 3.378279e-24 0.28149164 -0.059003145 -5.8733374e-05 -5.451224e-23 0.052501757 -0.00084610516
3.8954616e-16 0.046169817 0.07831245 -0.25783965 -0.03879527 -0.038706467 0.08251771 0.1698746
-0.08745101 -0.08218958 0.061876327 -0.11146085 0.03381637 0.062651396 0.1926195 -0.21056196
5.020449e-20 0.011562617 0.24838269 -0.15704377 1.4017808e-05 -0.030712407 -0.10535919 0.25285694
0.00081344653 -0.002058263 -0.21914725 0.13954538 0.05706205 -0.010900616 -0.29526052 -0.20704478
-0.047561266 -0.0019969018 0.23888195 -0.19483945 0.08281591 0.021025132 -0.21989794 0.15173282
-0.03500913 -0.0005265503 0.022140766 -0.056634057 1.9548017e-18 4.3445212e-07 0.22060432 -0.2437874
-0.04231358 -0.08469819 0.0681607 0.10678669 -0.02935306 -0.018058281 -0.17912252 -0.28236923
0.019583058 0.048448008 0.08207707 -0.27081034 0.0010280532 2.9018848e-23 0.1641828 -0.010973618
0.06553968 -0.00450719 0.27956212 0.28508106 0.009695036 -0.0046637324 0.013213883 0.263572
9.394649e-06 0.00028740297 -0.06446656 -0.15870042 3.1763052e-23 -0.016038464 0.27304173 -0.22108513
0.0030423997 0.0016010205 -0.08066335 -0.12874119 -0.0038825297 -0.009901016 -0.024824472 -0.046087712
-1.975696e-21 0.033356715 0.25389892 -0.1746389 -0.00014689713 -0.004030518 -0.12103873 -0.15301745
0.00070062076 -0.038878642 0.20381403 0.022275263 -0.068611905 0.017972684 0.25701854 0.17719565
-0.00491604 -0.034512315 0.24832512 0.08259946 -0.08587593 1.7691782e-05 -0.14585055 -0.042441517
-0.01684119 -0.070927165 -0.10474557 0.15463601 0.0001916554 -0.022293769 -0.19867663 -0.24378042
-3.4363466e-19 -0.040503155 -0.017687375 0.07199024 -0.025739996 -0.024040082 0.08959632 -0.25576487
0.003807863 -0.015032949 0.041345738 0.009047621 0.037428223 -0.026475951 0.11826937 0.046481125
0.011022985 -1.8884509e-20 0.31120184 0.28383836 0.07582032 -0.0005109688 0.16211519 -0.24709898
0.006392479 0.022410812 0.14319026 -0.15047018 0.0003646998 0.014711991 0.22036484 0.1657017
-2.7889668e-09 -0.06874019 -0.24961309 -0.21979584 0.0044375258 0.018904015 -0.026579697 -0.05929885
-0.023283366 0.037143316 -0.030706743 0.25961363 -0.07102014 4.489201e-06 0.10848253 -0.095731705
-0.024682188 9.322627e-05 0.15591764 0.23263404 4.0082404e-22 -0.01140411 -0.29481497 -0.13287418

layers.0.s1.fcn.0.bias f4 [64]
00000000: 3977 8abe 3681 443e b2e0 3f3e 56ba a63e
00000010: f208 00bf 1198 893e aa32 653e 41b1 473e
00000020: 8713 aebe 2ac9 9ebe 5993 bd3d 2310 41bc
00000030: 6fa8 bb3e 920d e23e e369 acbe 1b2f cfbe
00000040: 54e8 87bd ac4a 173e 2b95 8bbe 0f0b fc3e
00000050: 2d3a 913d 6f35 7dbe 0bdf b6be e5df f4be
00000060: d64f 6abe 3d66 823e 8f96 bd3e 1c63 f2bd
00000070: d326 06be 6f42 96be c6e5 bb3e 5547 8dbe
00000080: 6131 54be b1dc 203e 4754 eabc a98e 913e
00000090: 4e52 adbe 56bd 4ebe 32e7 8c3e 5ebe b9bd
000000a0: 6e57 a0be 1439 f8be cc56 82be da6d d0be
000000b0: f294 c7be 972b 17be 3c59 c6be 63a1 f03d
000000c0: 5bea eb3e 5533 123d 1f09 3dbd 3c59 b83e
000000d0: 9eda c73e 6896 d6bd 6b99 80be ee8b abbe
000000e0: a514 a73e e1ad 99be 8e4b cf3e 8f99 5abd
000000f0: 47d5 563e 5a1c e33c 3f37 2dbe 4fc8 babe
-0.27044085 0.19189915 0.18738058 0.32564038 -0.5001365 0.2687383 0.22382608 0.19501211
-0.33999273 -0.3101285 0.0925662 -0.011783632 0.36651942 0.44150978 -0.33674535 -0.40465626
-0.0663611 0.14774579 -0.27262244 0.49227187 0.07091174 -0.24727415 -0.35717043 -0.47827068
-0.22882017 0.25468627 0.3702893 -0.1183531 -0.13100748 -0.2934756 0.3669874 -0.27593485
-0.20721962 0.15709187 -0.02860464 0.28429154 -0.33851856 -0.20189413 0.27520138 -0.09069513
-0.31316704 -0.48481047 -0.25456846 -0.4070881 -0.38980824 -0.14762722 -0.38739955 0.11749532
0.46077237 0.035693485 -0.046151277 0.3600558 0.3903398 -0.104779065 -0.2511705 -0.33505195
0.32632938 -0.30015472 0.4048733 -0.0533691 0.20979796 0.02772348 -0.16915606 -0.36480948

layers.0.s1.fcn.2.weight f4 [64, 64]
00000000: f8b7 b93d 6a8f 603e 17c2 d6bd bca4 ad3d
00000010: 7a27 5dbd d1a5 33be c5b8 463e bd59 3bbe
00000020: 8c00 05bd 4a5c f73d 6ed6 2d3c 2ee2 fe3d
00000030: d615 433e 1e7a 0a3e 054e f1bd 17bf af3d
00000040: aa45 54be 85ba 56be 2c6e 4dbd 23dc 253e
00000050: 2fb0 36be f436 f5bd 486b 803d 3530 91bd
00000060: 1c14 363e 6f2a 95bd cafb 5abe e66c 293e
00000070: a033 67bd ee94 a2bd b713 423e b5c7 653d
00000080: 867e 4d3e 50c6 f73c 1b83 003e 13eb a0bd
00000090: 84c2 82bd d95c 24be 4eee 2fbe 21b8 863d
000000a0: 1c2a 51be b74f 193e f002 03be cd00 8dbd
000000b0: ad17 443e b40e 5dbe 4260 59be 20d6 c63d
000000c0: 850c edbd 8c6e 313e 338e 453e 4617 c63d
000000d0: 4168 303e bf6b 74bc 1219 8b3b 01ed 413e
000000e0: fa49 473e 10ca 4d3e 407e 7bbd b6f3 373e
000000f0: 6130 ec3c 1a65 2b3d 3962 223e 3f2e 4e3e
00000100: 93a8 33bd b339 303c 5d32 bcbd b438 54be
00000110: 8ae1 09be b08b 2a3e 39d4 86bb 1aeb d43c
00000120: 3dc9 5d3e 2346 b5bd 0e6e 88bd c0b2 cabd
00000130: a439 443d c5e9 82be deb7 803d 8f2d 57be
00000140: 9227 3cbe e114 5dbe 53b1 38be 2afd 673d
00000150: c7ab 48be 6409 153a 2f81 3e3d 389e 703d
00000160: 91f0 3f3d 229f 42be 941f 22be 44e9 41be
00000170: 204c d5bc f95a f63b fe2e ab3d 7299 7d3d
00000180: caef 903d ae7f c1bd 364f 3e3e f7de 2cbe
00000190: 5106 093b a4eb 07be 5683 c63d 7b76 803d
000001a0: 536e ba3d e11c 0e3e 2b2d 0b3a 02d5 f1bd
000001b0: 96d0 04be 752a d8bd 6b1f 55be d3bc dbbd
000001c0: 0a19 f73d 68a3 12be 8c25 31be 29c4 3b3e
000001d0: 2a26 2b3c 480e 06be e1db c23d 9996 9d3d
000001e0: 4c42 d23d c571 8bbd d46f 4abe 681d c539
000001f0: f8a0 19be 1c67 2abd 1609 98bd ae0c f13d
00000200: 2f60 d5bb cf19 2abe b03d 20bd 8dff 09bc
00000210: 5e56 133e 1795 df3c 9cc3 e73d 2002 f53d
00000220: 4e61 823d 8eb4 29be 9da7 f0bd b924 24be
00000230: 5a73 533e d6cf 0cbe ec21 813d 5822 9a3c
00000240: 42f2 4bbd 2552 6dbb 13bd ed3d 3de2 49be
00000250: 8616 e83d f4a8 d03d 97ea 54be cf5b cf3d
00000260: 0f23 503e 8bf1 9f3c cd2e efbd 48c8 27be
00000270: a81a c6bd acde 9a3d 3364 0c3c b7c8 413e
00000280: e6b8 253e 6d03 e3bd afed 5a3b 655f ccbd
00000290: cc64 58be 11a3 c7bc ad71 f93d 6558 1c3e
000002a0: 6684 173b 9ec8 ecbd d79c f7bc 15be f8bc
000002b0: 34cb cebb e0ad 533e 58d8 d9bc 3075 093e
000002c0: 0152 0dbe 4f52 113e 0e78 283e dcfb 37be
000002d0: 05ff 1f3e 0bf7 36be 53d7 c03d 110d 103e
000002e0: 5681 f6bd b093 493e 0fe2 4fbe 2588 febd
000002f0: 23a9 11be 64b6 c23d d203 90bd 7f93 1ebc
00000300: 8062 0a3e 4c01 173d e3e1 0f3e 55b7 e1bd
00000310: 92e3 16be 61e0 823d 96c6 953d 763e 3fbe
00000320: 6186 0fbe 6084 373e a47f 923d 5f6f 883d
00000330: 1c93 163e cf1e febd c4e9 4b3e 6cdd a5bd
00000340: b00c 883c 767b 113b 9ef5 56be 4722 103e
00000350: e174 28be e3b3 183e 703c f23d 6f10 04bd
00000360: a102 6abd d910 ccbd 4fe4 353e b72f 14be
00000370: eb0b 76bd 403d 1c3e e1ff 47be 4fd0 eebd
00000380: c479 41be e974 563e 09c1 2d3e b3b0 56bd
00000390: aaec 9f3c b4e6 543d 44b8 a5bd d6fe e33d
000003a0: f254 d73d 3a9e a53b 4a3c 4b3e 3f90 8c3d
000003b0: b9f3 90bb deb4 bc3c 81b8 a4bd a857 5e3e
000003c0: 0853 3abd fadd 65bd 88c2 08be f472 83bc
000003d0: 79dd 0f3e 89ec ccbb acd7 363e a341 5fbe
000003e0: 3da4 543d e373 fdbd c978 8ebd 2d22 c8bd
000003f0: 08e3 ae3d d8e0 353c b197 69b9 1773 4ebd
0.090682924 0.21929708 -0.104862384 0.08478686 -0.053992726 -0.17543723 0.19406421 -0.18295951
-0.032471225 0.120781496 0.010610206 0.12445484 0.19051298 0.13523147 -0.11782459 0.08581369
-0.207297 -0.20969589 -0.050153896 0.16197257 -0.17840646 -0.11973372 0.06270462 -0.07089273
0.17781109 -0.07283484 -0.21385112 0.16545448 -0.056445718 -0.07938562 0.18952833 0.05609866
0.20067796 0.03024593 0.12550013 -0.07857337 -0.06384757 -0.16051044 -0.1718075 0.065780886
-0.2042622 0.14971815 -0.1279409 -0.06884918 0.19149657 -0.2158764 -0.21228126 0.0970881
-0.115746535 0.17327327 0.19292526 0.09672408 0.1722727 -0.014918267 0.004244932 0.18938066
0.19461814 0.20096612 -0.0613997 0.17964062 0.028831663 0.041844465 0.15857781 0.20134829
-0.043861937 0.010755944 -0.091892935 -0.20724756 -0.13464943 0.16654849 -0.0041146544 0.025991011
0.21658798 -0.08851268 -0.06661616 -0.09897375 0.047906533 -0.25568977 0.0628507 -0.21013473
-0.1837447 -0.21589996 -0.18036394 0.05663792 -0.19596778 0.0005685298 0.046509918 0.05874464
0.04686028 -0.19006017 -0.15832359 -0.1893664 -0.026037276 0.007518169 0.083585724 0.061913915
0.07076986 -0.09448181 0.18584904 -0.1688193 0.0020908306 -0.13273484 0.09693019 0.06272598
0.09103074 0.13878204 0.000530916 -0.11808206 -0.12970194 -0.10554973 -0.20812766 -0.10729375
0.12065323 -0.14320147 -0.17299479 0.18336548 0.010446111 -0.13091385 0.09514595 0.0769474
0.102665514 -0.06808809 -0.19769222 0.00037596677 -0.15002811 -0.04160224 -0.07423608 0.117699966
-0.00651171 -0.16611408 -0.03912133 -0.008422744 0.14388415 0.027292771 0.113166064 0.11963296
0.06366216 -0.16572782 -0.1175072 -0.16029634 0.20649472 -0.13751158 0.06305298 0.018815205
-0.049791582 -0.0036212292 0.11608329 -0.1971521 0.11332421 0.10188475 -0.20792614 0.10124933
0.20325874 0.019524356 -0.116788484 -0.16384995 -0.09673053 0.075620025 0.008568811 0.18924223
0.16183814 -0.11084638 0.003340583 -0.099791326 -0.21132201 -0.024369748 0.12179885 0.15268095
0.0023119687 -0.11561702 -0.030226154 -0.030364076 -0.006310845 0.20671797 -0.026592419 0.1342361
-0.13800813 0.14191554 0.16452047 -0.1796717 0.15624626 -0.17867677 0.0941607 0.14067484
-0.120363876 0.19685245 -0.20301078 -0.12428311 -0.14224677 0.095074445 -0.07031979 -0.0096787205
0.13514137 0.03686647 0.14051013 -0.11021296 -0.14735249 0.06390453 0.07313268 -0.1867617
-0.14016105 0.17921591 0.07153252 0.06661867 0.14704555 -0.1240822 0.19913393 -0.080988735
0.016607612 0.0022198833 -0.20992133 0.14075576 -0.16450836 0.14912371 0.11827934 -0.032242235
-0.057131413 -0.09964151 0.17762874 -0.14471327 -0.06006996 0.1525774 -0.19531204 -0.116608255
-0.18894106 0.20943035 0.16968168 -0.052414607 0.01952203 0.05197783 -0.080917865 0.111325905
0.10514249 0.0050542625 0.19847217 0.0686345 -0.0044235853 0.023035463 -0.08043004 0.21713126
-0.04548934 -0.056119896 -0.13355458 -0.016046025 0.14049329 -0.006253783 0.1785571 -0.21802382
0.051914442 -0.12375619 -0.06956632 -0.097721435 0.085393965 0.01110097 -0.00022277121 -0.050402727

layers.0.s1.fcn.2.bias f4 [64]
00000000: 50c1 29bc 1cad cc3d 72dc adbd 595e cc3d
00000010: 89db c0bd 3687 ebbd 2540 043e 8fed 4f3c
00000020: f078 ad3c 396c 9c3d e371 a23d e244 babd
00000030: 0dfc de3c 3fbc 4e3d 214d e43c c0d0 023e
00000040: 6eee d4bd 50dd 033d f095 b43c ef1f b63d
00000050: 1178 003d ea1e 223d 9e11 e8bc 1f8f 6f3d
00000060: 60ef debd 69f8 7c3d b8d5 333d e9c2 9dbc
00000070: 4f41 43bd 99b4 29bc 35b7 863c 23f2 01be
00000080: d79d 39bd 8916 d63d bf0d d13c 304b 923d
00000090: b81e d7bd 94ff a63d 4696 783d 4cc2 873d
000000a0: 40b2 da3d 33b2 c63d 75fb acbd 0c41 333c
000000b0: 6929 d0bb 624b 463c 2548 2b3d 6ad7 c93d
000000c0: dfc0 89bb dc29 20bd 933f ca3d 359c d8bd
000000d0: 73b1 ce3d 241c 52bd fda3 d2ba ae07 443d
000000e0: 6792 e43d 3898 1e3d 3ecb 2cbc 6d88 873d
000000f0: 51b4 2b3d 108b 923d bde4 953d da9c b53d
-0.010361031 0.099939555 -0.08489312 0.09978933 -0.09416873 -0.11500399 0.12915094 0.012690916
0.021175832 0.07637829 0.079318784 -0.090951696 0.027219797 0.050472494 0.02786881 0.12774944
-0.10397039 0.032193482 0.022044152 0.088928096 0.031364504 0.039580263 -0.028328713 0.0584861
-0.10885501 0.06176034 0.04390499 -0.01925798 -0.047669705 -0.010357999 0.016444782 -0.12690024
-0.045316543 0.10453517 0.02551925 0.07143247 -0.10503906 0.081542164 0.060690187 0.06628856
0.1067853 0.097019576 -0.08446399 0.010940801 -0.0063525927 0.012102934 0.04181685 0.0985554
-0.0042039 -0.03910242 0.09875407 -0.10576669 0.100924395 -0.05129637 -0.0016070601 0.047858886
0.111607365 0.038719386 -0.010546504 0.06617818 0.04192001 0.0715543 0.07319019 0.08867808

layers.0.s1.fcn.4.weight f4 [4, 64]
00000000: 107e 893e dcf5 a8bd fc71 433e 74ce 8abd
00000010: 356d 41be 9f07 49be c7d1 3f3d 966b 6f3e
00000020: db6b 2a3e ed9b 90be c253 64be 5832 16be
00000030: a9ab 01bd c041 80be 1be4 11bd db21 4c3e
00000040: df47 a4bd 7644 bcbd fad0 7bbe 1e85 cabd
00000050: 3da5 393d 682d 003e 8dde 87be 9395 3c3e
00000060: c01b 373e 258b 88be 5639 033e 07f0 ffbd
00000070: db6b fa3d 47b2 3bbc 2f6c f8bd d634 7ebe
00000080: a503 7abe e9d5 983e c232 223e 4c1a 1dbe
00000090: 7087 65bd 8e75 933d 40d1 6fbe 4ed0 cfbd
000000a0: e9ca cc3d c211 863e 7f9b d1bc 11aa 95be
000000b0: ccdd 81be 24ef ba3c a217 8cbc 7554 243e
000000c0: 0a0a 023e d48c b13d 1bdc dc3d 8757 493e
000000d0: babd 4f3e 2f4c 8e3e 5b2a 0ebe bab2 6fbe
000000e0: 288e 60bd f670 07be 2f76 6fbe 1026 903e
000000f0: dd94 8a3e 740a ab3d 3842 713d b128 d4bd
00000100: cf80 69be f506 913e bf47 6d3d 7223 523e
00000110: e8d1 953e 9e75 b93d bd0f 9fbd a1df edbd
00000120: b3c9 343e 97b6 8e3e 32c6 dabd 999e a8bd
00000130: ffe9 523d c318 4b3e 6f65 623e 1cf6 f13d
00000140: f4c9 c5bd 1614 bdbc 9626 c53d ac0a 92be
00000150: 4fb2 56bd 549a 63bd e6fb 503d c82f 91be
00000160: c287 323e 2a3f 81be b1fa 7abe 242b 85be
00000170: 072a 3abe 6c1a 3ebe f6c3 7d3e 68e0 393e
00000180: 7257 58bb ec66 143e 606d 623e 0539 41bd
00000190: 8fe9 283e e937 8cbe b328 50bc 52ca 6cbd
000001a0: cc68 983d 7c31 0a3e 029f 1c3d 9776 783e
000001b0: 452f 5a3d c35c 06bd f86a 853d db86 313d
000001c0: 61a4 333e 2fc8 683e 18ca 273e 1eb3 4d3e
000001d0: b34e 94be 6189 efbd 6ec7 d9bd c355 24be
000001e0: 8f53 79be 7164 3dbe 780c 4a3e 1016 ffbd
000001f0: 1a2b cb3c f290 853e e30b 84be dd0d 5a3d
00000200: 2c5e 043d 2e8e 63bc a6b1 e434 ad3c d439
00000210: f3fd 06bd 5557 973b f28d 8fa7 b3a1 53bd
00000220: 5fc5 443d 5e11 833c b9b3 8abd f8ee 4c3a
00000230: 3f3e 643d 38a3 013d c37f 8aa1 f890 36b5
00000240: 7206 0d3d 9551 a22a 881b 063a 37c9 583b
00000250: 3237 f13a 295d 223a 854a 68bd 1e04 faba
00000260: 5275 a83d 8fc9 35b9 2793 801c 39a9 4d3d
00000270: b839 e4bc 7f60 9db6 5e33 3bbc 63bb 81ba
00000280: 0a1a 31b3 efb8 9838 533e 0ba8 7a8b 2eb8
00000290: a4ac 193a c1d2 80a2 8d30 90b2 118d 812d
000002a0: 9f25 853a 5fca ea1e 3760 fb18 f0c6 02a0
000002b0: 75a9 8db9 9044 9a3d b0b4 a1b3 a2a9 41bb
000002c0: 9b51 863d 441e 0bbc a768 0fa0 cc3d 8c99
000002d0: c9c7 8f36 857f 843a 1f34 00b2 4735 cc9b
000002e0: aae9 209a 3727 1abb 2c79 c81a 2f5c ae20
000002f0: 6fb5 9f19 9518 8cb9 716f 8abd adc6 3aba
00000300: 5af2 8fbc fa53 2fbd ec7f 89bd 0ba3 ff3c
00000310: c766 78bc c855 953a f91d 03bc 287d 823c
00000320: e0fa 263d 5ee0 0a38 aae5 853d 561f f1bc
00000330: eb00 7c3a 7d15 2e3d a02d 32bd f8f0 9538
00000340: a4b6 6f3d 05df 48a4 aa24 63bc 6b12 3d33
00000350: cca2 1f3c 1a67 923d 57f0 d43b e0cc 5aba
00000360: 5a45 6727 6666 1d3a 81cb d13c 7a1e 743d
00000370: abde c633 88e5 833c 69fb c5bb 152c c1bc
00000380: 25f7 9f3d 948a 50a3 b8cb e8ba 0326 e1b5
00000390: c812 359f f2a7 f03a 9c32 953c e3f1 83bc
000003a0: 483b b6bd ebbd 1739 3e34 1438 6ab4 009a
000003b0: 68aa 7cbc ad19 d8bc c08c b23d 390c 863d
000003c0: 1099 c43b 9d21 ebb9 1982 9b3c cefa 1bbd
000003d0: 9ac4 3abc e39e c6b8 b95a 2bbb 0f96 25bd
000003e0: 964e b5bd c352 88ba f1d0 83bc 0638 2e36
000003f0: fd75 1bbd 10be 161d d2d9 4737 81e4 353c
0.2685399 -0.08250019 0.1908645 -0.06777659 -0.18889315 -0.19631813 0.04683092 0.23380885
0.16642706 -0.28243962 -0.22297576 -0.14667642 -0.03165785 -0.25050163 -0.03561793 0.1993479
-0.08021521 -0.091927454 -0.24591437 -0.09888671 0.0453236 0.12517321 -0.2653698 0.18416433
0.1788168 -0.2666866 0.1281484 -0.124969535 0.12227603 -0.011456079 -0.121300094 -0.24824843
-0.24415453 0.298507 0.15839675 -0.15342063 -0.056037366 0.07200156 -0.23419666 -0.10147153
0.099996395 0.26185423 -0.025586842 -0.29231313 -0.2536453 0.02281911 -0.017101113 0.16047843
0.12699142 0.08669439 0.10784169 0.19662295 0.20287219 0.27792498 -0.13883345 -0.23408023
-0.05482307 -0.13226685 -0.23384927 0.2815404 0.270667 0.08351603 0.05890104 -0.10359324
-0.22803043 0.2832562 0.05792975 0.20521334 0.29261708 0.09055637 -0.07766674 -0.116149195
0.17655067 0.2787368 -0.10682334 -0.08233375 0.051492687 0.19833665 0.22109006 0.1181452
-0.0965766 -0.023080867 0.096265 -0.28523767 -0.052416142 -0.0555671 0.05102148 -0.28356767
0.174346 -0.25243503 -0.24509694 -0.26009476 -0.18180095 -0.18564767 0.24781784 0.1815201
-0.0033011106 0.14492387 0.22112036 -0.04717352 0.16495346 -0.27386406 -0.012705016 -0.057810135
0.074418634 0.1349544 0.03823758 0.24263988 0.053267736 -0.03280331 0.06514543 0.0433415
0.17543174 0.22732614 0.16385686 0.20087859 -0.28966293 -0.11696125 -0.10633741 -0.1604834
-0.24348281 -0.18495347 0.19731319 -0.1245538 0.024800826 0.26087147 -0.2579032 0.053235877
0.03231637 -0.013888879 4.2597566e-07 0.00040480998 -0.03295703 0.004618565 -3.984437e-15 -0.05166788
0.04803979 0.015999492 -0.067725606 0.00078175915 0.055723425 0.0316498 -9.385062e-19 -6.801124e-07
0.034429975 2.883359e-13 0.0005115797 0.0033078918 0.001840329 0.00061936915 -0.056711692 -0.0019074713
0.08225502 -0.00017336592 8.508367e-22 0.05021021 -0.027859554 -4.6901982e-06 -0.011425821 -0.0009897765
-4.1234706e-08 7.2823714e-05 -7.7295644e-15 -4.161473e-05 0.0005862212 -3.4917614e-18 -1.6785885e-08 1.4728248e-11
0.0010158307 2.4859412e-20 6.497913e-24 -1.1077251e-19 -0.0002701987 0.075326085 -7.5300136e-08 -0.0029550572
0.06558534 -0.008491103 -1.2147198e-19 -1.450062e-23 4.28499e-06 0.0010108805 -7.462432e-09 -3.3783399e-22
-3.3275977e-23 -0.002352191 8.2913825e-23 2.9537749e-19 1.6513495e-23 -0.00026721196 -0.06759537 -0.0007124942
-0.017571617 -0.042804696 -0.06713852 0.031205675 -0.015161223 0.0011393363 -0.0080027515 0.01592882
0.040766597 3.3110722e-05 0.065379456 -0.029433887 0.0009613174 0.04250096 -0.043500543 7.1497576e-05
0.05852379 -4.3556992e-17 -0.013863722 4.4021743e-08 0.009743404 0.07148571 0.0064983773 -0.0008346569
3.2095285e-15 0.0006004333 0.025609734 0.059599377 9.2605966e-08 0.01610066 -0.0060419333 -0.02358059
0.07810811 -1.1305048e-17 -0.0017760908 -1.6774869e-06 -3.8343776e-20 0.0018360598 0.018212609 -0.016106552
-0.08898026 0.00014471232 3.5334604e-05 -2.6615517e-23 -0.015421487 -0.02637943 0.08718252 0.065453
0.005999692 -0.00044847737 0.018982934 -0.038080983 -0.0113994125 -9.470971e-05 -0.0026146604 -0.04042631
-0.0885288 -0.0010400641 -0.016090842 2.596063e-06 -0.03795432 1.9950595e-21 1.191204e-05 0.011101843

layers.0.s1.fcn.4.bias f4 [4]
00000000: 5115 ff3d 502e c53d 090c 111b 7004 e8b7
0.12455238 0.09627974 1.1998008e-22 -2.7658622e-05

layers.1.mask f4 [4]
00000000: 0000 803f 0000 803f 0000 0000 0000 0000
1.0 1.0 0.0 0.0
