RealNVP/RealNVP_model.pt (torch, 93019 bytes, 84 tensors)

layers.0.mask f4 [4]
0.0 0.0 1.0 1.0
00000000: 0000 0000 0000 0000 0000 803f 0000 803f

layers.0.t1.fcn.0.weight f4 [32, 4]
-2.0453e-41 -0.0023436367 0.26681215 0.022610309 2.1933945e-36 9.011743e-33 -0.082831115 -0.07578431
-1.477e-41 -4.6790498e-07 0.13957897 0.380661 0.0009887384 2.7186653e-07 0.2853831 -0.29740044
-0.0038571705 0.001182238 0.41467428 0.21390186 3.712e-41 -1.7976717e-30 -0.19192292 -0.32247657
-0.0005602087 2.1389961e-24 -0.15632126 0.116004765 0.001262303 -0.002218722 -0.38707095 -0.2787478
0.01188969 -1.4357823e-07 -0.11473717 -0.22284028 0.0021763453 -4.922265e-05 -0.06810325 0.10006761
2.9914387e-09 -2.0970822e-07 0.2169277 0.20571223 2.1083764e-12 2.932005e-28 0.24026261 0.35477763
-0.0038643356 1.7855236e-11 -0.35828158 0.07106195 -0.0076681036 0.0008344852 0.30894756 -0.10743243
0.00044098054 0.0014298976 -0.11209425 -0.37836388 1.619e-41 1.1242076e-06 -0.034290414 -0.058790624
-0.00014315725 9.8254975e-05 0.018398343 -0.14512639 8.3248635e-09 -0.0061461083 0.10969626 -0.19277497
-0.00046547808 0.00021487192 0.17487146 -0.16406178 0.006493894 0.012314108 0.20001362 0.31457856
-4.243627e-08 -0.0006305876 0.0671815 -0.090144806 -0.0014130119 0.000113425944 -0.2028491 -0.18150015
0.0074350764 -0.009750664 0.056120556 0.28980693 0.011765876 -0.005266092 0.044943407 0.12572734
-1.5022e-41 0.003368605 -0.028130427 -0.24819145 -9.306031e-13 1.723715e-05 -0.16261195 0.2560731
-5.943e-41 -0.0011276399 -0.27062705 0.33593133 -1.5785272e-18 -0.002818833 -0.3494823 -0.3278432
0.0043270686 -0.00021783881 0.03194817 -0.3995251 -8.996736e-06 -7.712885e-13 -0.39663297 -0.150211
9.164607e-06 -0.0056232973 -0.27212986 -0.15469825 9.228e-42 6.0865015e-17 0.20317301 0.024987455
00000000: 0439 0080 b397 19bb 9a9b 883e 4139 b93c
00000010: e797 3a04 a52a 3b0a 5ca3 a9bd ce34 9bbd
00000020: 2c29 0080 5f34 fbb4 caed 0e3e 00e6 c23e
00000030: 8e98 813a 0df5 9134 bc1d 923e df44 98be
00000040: 95c8 7cbb 53f5 9a3a 3050 d43e 1709 5b3e
00000050: 7a67 0000 2ed8 118e 7187 44be a61b a5be
00000060: f8da 12ba 2f7f 2518 ae12 20be e893 ed3d
00000070: dc73 a53a fa67 11bb 2a2e c6be 08b8 8ebe
00000080: f9cc 423c 7c2a 1ab4 52fb eabd 3e30 64be
00000090: 04a1 0e3b 6b74 4eb8 b779 8bbd 3ff0 cc3d
000000a0: f291 4d31 282c 61b4 4c22 5e3e 3aa6 523e
000000b0: 225d 142c 80d6 b911 6707 763e 6aa5 b53e
000000c0: cb40 7dbb 6b0e 9d2d af70 b7be ed88 913d
000000d0: b744 fbbb 5bc1 5a3a 602e 9e3e 8905 dcbd
000000e0: 6833 e739 676b bb3a ac91 e5bd e9b8 c1be
000000f0: 222d 0000 7be3 9635 1b74 0cbd 70ce 70bd
00000100: 7b1c 16b9 3d0e ce38 1fb8 963c 039c 14be
00000110: 2305 0f32 4b65 c9bb 6fa8 e03d cd66 45be
00000120: 690b f4b9 3e4f 6139 8111 333e d0ff 27be
00000130: bbca d43b 1dc1 493c 5fd0 4c3e 7110 a13e
00000140: 2c43 36b3 044e 25ba 7496 893d d79d b8bd
00000150: d034 b9ba 17df ed38 adb7 4fbe 2ddb 39be
00000160: f1a1 f33b 40c1 1fbc abde 653d 9361 943e
00000170: a9c5 403c 2e8f acbb 9416 383d abbe 003e
00000180: e029 0080 d0c3 5c3b c871 e6bc e625 7ebe
00000190: 83f8 82ab 7f98 9037 bf83 26be 031c 833e
000001a0: aba5 0080 51cd 93ba a18f 8abe 31ff ab3e
000001b0: 12f3 e8a1 2cbc 38bb 58ef b2be 10db a7be
000001c0: 15ca 8d3b a96b 64b9 16dc 023d 8e8e ccbe
000001d0: b0f0 16b7 3219 59ab 7a13 cbbe ead0 19be
000001e0: b0c1 1937 a343 b8bb 9b54 8bbe 3869 1ebe
000001f0: b919 0000 5d58 8c24 960c 503e 7eb2 cc3c

layers.0.t1.fcn.0.bias f4 [32]
-0.07094686 -0.44286075 -0.08558772 0.21186598 -0.11001589 -0.40618667 0.2584457 -0.123231
0.06055736 0.100916535 -0.24687539 0.4344969 -0.044553667 -0.120184295 -0.13185951 -0.25562555
-0.33572084 -0.16097756 -0.4811529 -0.14447792 0.055870324 -0.0015450517 -0.13819958 0.004873887
0.0006984116 -0.48753372 -0.07166299 0.16456364 -0.27131578 -0.45319587 0.014500805 0.0061289147
00000000: 964c 91bd a5be e2be 9d48 afbd 65f3 583e
00000010: 0350 e1bd b3f7 cfbe ff52 843e 8960 fcbd
00000020: ff0a 783d 54ad ce3d e7cc 7cbe 6176 de3e
00000030: e87d 36bd 2f23 f6bd 2e06 07be 5ae1 82be
00000040: 9ae3 abbe 4dd7 24be ac59 f6be 05f2 13be
00000050: 48d8 643d 5583 caba 3184 0dbe 21b5 9f3b
00000060: 9c15 373a 059e f9be 0cc4 92bd 5f83 283e
00000070: e7e9 8abe 4a09 e8be c994 6d3c 10d5 c83b

layers.0.t1.fcn.2.weight f4 [32, 32]
0.121591486 0.23550048 0.28301752 0.15057135 0.0048083416 -0.07463588 0.25851944 -0.19401473
0.29039407 -0.1700594 0.12904957 -0.23272759 -0.044313975 0.18523906 -0.20145667 -0.035925757
0.03479585 -0.28350666 0.025297001 0.24767573 0.031097144 0.21265794 -0.08273875 -0.26825878
0.2100067 -0.2789128 -0.041941024 0.18431965 0.01622036 0.19296752 0.24050716 -0.14097857
-0.16675854 -0.2550257 0.26775593 -0.19950356 -0.2823323 0.19931835 -0.076494895 -0.062204063
0.16400269 -0.16879804 -0.10811064 0.14460315 0.17147242 -0.07657493 0.02752473 -0.098409206
0.23872796 0.24796917 0.07158341 -0.18936059 -0.012084704 0.20637116 0.23846026 -0.05546621
0.24850959 -0.08628988 0.12067195 -0.18261568 -0.22001746 -0.25977 0.28418452 0.015074684
0.20565061 -0.03518886 -0.2664486 0.07535641 -0.292134 0.096234895 0.038194466 -0.25874078
0.117047936 -0.06023432 0.054383036 0.26808798 0.06655573 -0.048596047 -0.21720564 -0.06294777
0.112252146 -0.0100054145 0.16729341 -0.06991098 -0.30315593 -0.27817872 0.100743555 0.025234161
-0.014637025 0.12113235 0.17278752 -0.12763529 0.07746066 0.14496918 0.16998142 0.25178298
0.1793551 -0.08890143 -0.043489534 -0.058189295 0.0023837718 0.10683392 -0.14371826 -0.0922983
-0.1725279 0.061460935 -0.08974833 -0.1590224 0.19005589 -0.032234862 0.22745465 0.113153525
-0.14252385 0.115135536 0.06547122 -0.21279424 -0.16899623 0.28751045 0.236314 -0.28452495
-0.08331674 -0.2238078 0.26922426 -0.12801903 0.28099257 -0.18916973 0.2679284 -0.14717883
-0.24154812 0.19449909 0.24605575 0.07980928 0.11802719 0.012306863 0.2892972 -0.10367518
-0.20371479 0.15917973 0.14904283 0.10107608 -0.009385414 0.09064739 -0.052541476 0.30757174
0.15107644 0.17385079 0.078502454 -0.2969826 0.26349044 0.09509829 0.1438204 -0.27032518
-0.065374404 -0.28118363 -0.18815485 0.23938574 -0.02992877 -0.10777242 0.13492861 0.14501816
0.21484043 -0.21138752 0.2082998 0.21849917 -0.23562409 -0.051951695 -0.2190038 -0.2176829
0.27926102 -0.04439027 -0.19529012 0.018036231 -0.19122308 -0.004001411 0.24239568 0.28456563
0.015142178 -0.12641172 -0.0703675 0.27859974 0.21147656 -0.2643323 0.25009522 -0.05395369
0.10151983 0.14190057 -0.039562516 0.11942074 0.2071638 0.14827465 -0.04165647 -0.00817108
0.11579998 -0.0372114 -0.20744827 -0.21046473 0.1700888 -0.18268043 -0.019100597 0.25227687
0.1427954 0.19134401 0.2906008 -0.011872641 -0.24637273 -0.2807979 -0.198691 -0.22440207
0.21481757 0.208212 -0.2585712 -0.07389805 0.28604156 0.29697478 0.27032632 0.010210369
0.16288508 -0.06817079 0.21019702 -0.27865502 -0.26500064 0.19832556 0.21829619 0.21666539
0.17963834 0.27283135 -0.28267294 0.28170854 0.20422469 -0.015955137 0.17995234 -0.19428715
-0.08818698 0.09350173 0.17416519 0.070454575 0.26428264 0.06894444 -0.26843703 0.2912731
0.0880879 -0.25967 0.17108369 0.15132536 0.29721782 0.14476047 0.018602148 0.06861523
-0.08832219 -0.24659015 -0.18265903 0.30014056 0.29204547 -0.20163484 0.13888073 -0.16418365
00000000: f504 f93d 0a27 713e ace7 903e 602f 1a3e
00000010: 4b8f 9d3b b2da 98bd a95c 843e ccab 46be
00000020: 88ae 943e 0d24 2ebe 9225 043e 2450 6ebe
00000030: 9282 35bd 4faf 3d3e a84a 4ebe e326 13bd
00000040: 1886 0e3d c927 91be a83b cf3c b59e 7d3e
00000050: 70bf fe3c 01c3 593e ef72 a9bd 3759 89be
00000060: ff0b 573e a9cd 8ebe 5aca 2bbd 4abe 3c3e
00000070: 8fe0 843c 4799 453e 8247 763e b05c 10be
00000080: c0c2 2abe bb92 82be 4e17 893e a94a 4cbe
00000090: dc8d 90be 1c1a 4c3e 5ba9 9cbd b0c9 7ebd
000000a0: 52f0 273e 65d9 2cbe 1c69 ddbd d912 143e
000000b0: 7796 2f3e 51d3 9cbd 8b7b e13c c48a c9bd
000000c0: 1a75 743e a1eb 7d3e 539a 923d bee7 41be
000000d0: ecfe 45bc f652 533e ed2e 743e 8930 63bd
000000e0: 4c79 7e3e c0b8 b0bd db22 f73d 9bff 3abe
000000f0: 424c 61be 9300 85be a280 913e cffb 763c
00000100: 1396 523e 3222 10bd f36b 88be 7654 9a3d
00000110: 9692 95be cd16 c53d cd71 1c3d ac79 84be
00000120: d4b6 ef3d 43b8 76bd bfc0 5e3d d442 893e
00000130: 5f4e 883d a60c 47bd 286b 5ebe c3ea 80bd
00000140: 74e4 e53d c0ed 23bc f74e 2b3e 7d2d 8fbd
00000150: 4137 9bbe 716d 8ebe a352 ce3d dfb7 ce3c
00000160: 22d0 6fbc 3d14 f83d 36ef 303e d3b2 02be
00000170: b2a3 9e3d cd72 143e 9c0f 2e3e b3e9 803e
00000180: dda8 373e f411 b6bd 1522 32bd e657 6ebd
00000190: 0e39 1c3b becb da3d e12a 13be e406 bdbd
000001a0: 27ab 30be 76be 7b3d f9cd b7bd c5d6 22be
000001b0: 039e 423e b408 04bd dfe9 683e 09bd e73d
000001c0: c6f1 11be 2ecc eb3d c615 863d bce6 59be
000001d0: 590d 2dbe 9234 933e 4cfc 713e 41ad 91be
000001e0: f8a1 aabd df2d 65be c3d7 893e 6c17 03be
000001f0: 42de 8f3e b6b5 41be e92d 893e 0cb6 16be
00000200: 6458 77be c52a 473e 0af6 7b3e 0c73 a33d
00000210: 3db8 f13d baa2 493c c31e 943e a753 d4bd
00000220: 9c9a 50be 0300 233e af9e 183e fa00 cf3d
00000230: 48c5 19bc 57a5 b93d bb35 57bd 0b7a 9d3e
00000240: c8b3 1a3e f105 323e e5c5 a03d 1a0e 98be
00000250: 38e8 863e e4c2 c23d a845 133e 1068 8abe
00000260: 04e3 85bd 4df7 8fbe aaab 40be 8921 753e
00000270: 2e2d f5bc c9b7 dcbd ba2a 0a3e a47f 143e
00000280: 21ff 5b3e f875 58be 8b4c 553e 3fbe 5f3e
00000290: 7147 71be 4dcb 54bd 8842 60be 44e8 5ebe
000002a0: 4dfb 8e3e 92d2 35bd 22fa 47be b8c0 933c
000002b0: fccf 43be 451e 83bb 9336 783e 96b2 913e
000002c0: e616 783c 1372 01be d61c 90bd a0a4 8e3e
000002d0: 508d 583e 9056 87be 7b0c 803e 8bfe 5cbd
000002e0: a1e9 cf3d 624e 113e 4e0c 22bd dc92 f43d
000002f0: bf22 543e 4fd5 173e fa9f 2abd fedf 05bc
00000300: 8a28 ed3d fb6a 18bd 526d 54be 1184 57be
00000310: c22b 2e3e 9410 3bbe db78 9cbc 6f2a 813e
00000320: f538 123e afef 433e a1c9 943e 7785 42bc
00000330: 2249 7cbe bec4 8fbe a775 4bbe a8c9 65be
00000340: 23f9 5b3e 8735 553e 7263 84be dc57 97bd
00000350: 0a74 923e 140d 983e 3668 8a3e 6449 273c
00000360: 59cb 263e 219d 8bbd e33d 573e dfab 8ebe
00000370: 2aae 87be db15 4b3e 0989 5f3e 88dd 5d3e
00000380: 1df3 373e 8db0 8b3e 82ba 90be 1a3c 903e
00000390: 4720 513e 59b4 82bc 6d45 383e 36f3 46be
000003a0: 609b b4bd d67d bf3d 5c58 323e 7d4a 903d
000003b0: 0e50 873e be32 8d3d 9470 89be bf21 953e
000003c0: 6e67 b43d 77f3 84be 9030 2f3e 09f5 1a3e
000003d0: ef2c 983e 173c 143e 8863 983c 2486 8c3d
000003e0: 44e2 b4bd 2182 7cbe f80a 3bbe 06ac 993e
000003f0: fc86 953e 5d79 4ebe c036 0e3e c21f 28be

layers.0.t1.fcn.2.bias f4 [32]
0.039967455 -0.0050163413 0.048935972 -0.1827829 0.08186379 0.08436636 -0.15217654 0.15285106
0.16315992 0.09913102 -0.07069292 0.15947022 0.050296307 -0.08617579 -0.14835845 -0.06830338
-0.08958769 -0.13239215 0.08866337 -0.029302485 0.13451116 0.12429456 -0.032576773 -0.010740663
0.18538015 -0.07957837 -0.016260138 0.16029328 0.113883965 -0.011258919 -0.13601871 -0.043142807
00000000: eab4 233d 1f60 a4bb 1671 483d 712b 3bbe
00000010: 34a8 a73d 45c8 ac3d 2bd4 1bbe fd84 1c3e
00000020: 6513 273e 3405 cb3d 73c7 90bd 294c 233e
00000030: 8003 4e3d ef7c b0bd 47eb 17be a4e2 8bbd
00000040: c079 b7bd cf91 07be 2495 b53d c40b f0bc
00000050: 4bbd 093e 258e fe3d 396f 05bd 9bf9 2fbc
00000060: 4bd4 3d3e fcf9 a2bd fb33 85bc ec23 243e
00000070: ff3b e93d 5477 38bc 7d48 0bbe 83b6 30bd

layers.0.t1.fcn.4.weight f4 [4, 32]
-0.14503334 -0.044533513 -0.010275493 0.065745756 -0.40481183 -0.2447647 -0.023524614 -0.34366632
-0.30103755 0.1447135 0.22380172 0.078885324 -0.23529881 0.040165033 0.33249173 0.2243028
-0.14621033 0.39353305 -0.34833372 0.21218786 -0.23697478 -0.34415004 -0.19152579 -0.3607236
0.0897159 -0.24801016 0.014441595 0.36227924 -0.28934747 0.23011148 -0.13072425 -0.059702147
-0.30616334 -0.20958023 -0.338024 0.011346264 0.3585227 0.12594348 0.008656435 0.14101472
-0.32678077 0.12669034 -0.36021152 -0.25165346 -0.15686801 -0.182244 0.04215063 -0.2877189
-0.011043787 0.3719051 -0.3241423 -0.03589587 0.27140707 0.07136558 -0.25844175 0.38045833
-0.20667471 0.37600562 0.18991295 0.25610268 -0.0992835 0.31677207 0.18796563 -0.14571413
-1.958939e-10 -8.0481e-41 -2.2990049e-05 2.9742848e-09 0.0014486095 -5.074e-42 4.253966e-07 -2.007663e-15
-0.005929736 -1.8032e-41 0.00011587611 -0.002879381 -0.001995408 6.943173e-08 0.009804322 3.4438866e-08
-0.0003428759 -0.013357327 9.526254e-05 -0.00039781 4.3146188e-06 5.9547588e-08 -0.0054337536 2.8739e-41
0.000503565 -1.2891635e-06 -3.361398e-07 -0.00031944874 -0.0076868837 -1.0690369e-07 -0.008239492 0.010894501
-0.0002457369 -0.00036042088 0.012181953 6.551075e-30 -2.6718624e-19 -4.1780422e-07 0.0008454287 -0.0033094161
-0.004142377 0.0031360956 -0.011744507 -4.6548407e-06 -2.3794e-41 -0.00043575594 2.4444585e-11 0.0045893695
0.0038913647 8.014007e-11 -0.00063584786 -0.010258159 0.0012609857 4.69538e-13 -7.8565e-41 -0.004698312
-0.00017078295 -2.9402798e-05 2.1087818e-07 -1.567768e-12 4.753267e-08 -0.00288573 0.0026538721 -1.1345e-41
00000000: 9f83 14be c668 36bd 8b5a 28bc b6a5 863d
00000010: 7f43 cfbe 99a3 7abe b1b6 c0bc 08f5 afbe
00000020: 9821 9abe c72f 143e 472c 653e a18e a13d
00000030: 2cf2 70be 1784 243d 5b3c aa3e a2af 653e
00000040: 29b8 15be 2a7d c93e cc58 b2be c647 593e
00000050: 84a9 72be 6f34 b0be 561f 44be c4b0 b8be
00000060: f8bc b73d 60f6 7dbe 719c 6c3c aa7c b93e
00000070: 5a25 94be 58a2 6b3e 94dc 05be 3d8a 74bd
00000080: 71c1 9cbe 339c 56be 7b11 adbe aee5 393c
00000090: 4a90 b73e 54f7 003e b8d3 0d3c 2a66 103e
000000a0: cf4f a7be 1dbb 013e a56d b8be b9d8 80be
000000b0: 02a2 20be 2c9e 3abe 24a6 2c3d e44f 93be
000000c0: 00f1 34bc 586a be3e fbf5 a5be 8c07 13bd
000000d0: def5 8a3e 1e28 923d 7a52 84be 6fcb c23e
000000e0: 89a2 53be cf83 c03e 8a78 423e e41f 833e
000000f0: 2655 cbbd f32f a23e 107a 403e 1636 15be
00000100: 3b63 57af 59e0 0080 c1da c0b7 2c64 4c31
00000110: 45df bd3a 250e 0080 1062 e434 d8aa 10a7
00000120: 3b4e c2bb 4432 0080 8302 f338 ffb3 3cbb
00000130: 64c5 02bb 7f1a 9533 4fa2 203c efe9 1333
00000140: 06c4 b3b9 b1d8 5abc b0c7 c738 2891 d0b9
00000150: 4bc6 9036 44c1 7f33 a10d b2bb 1d50 0000
00000160: ad01 043a 5207 adb5 b476 b4b4 af7b a7b9
00000170: 41e2 fbbb ed92 e5b3 effe 06bc d97e 323c
00000180: 40d6 80b9 dff6 bcb9 d096 473c 20df 040f
00000190: 0bb8 9da0 934e e0b4 c29f 5d3a cae2 58bb
000001a0: c7bc 87bb f486 4d3b 086c 40bc c730 9cb6
000001b0: 5442 0080 2c76 e4b9 5004 d72d 6c62 963b
000001c0: 4406 7f3b d93a b02e 07af 26ba d611 28bc
000001d0: a947 a53a c729 042b 02db 0080 4cf4 99bb
000001e0: 3314 33b9 07a6 f6b7 c16d 6234 cca4 dcab
000001f0: b926 4c33 841e 3dbb 96ec 2d3b a01f 0080

layers.0.t1.fcn.4.bias f4 [4]
-0.09798627 0.09660912 -6.43542e-40 1.0221e-41
00000000: 07ad c8bd 01db c53d ef01 0780 7e1c 0000

layers.0.s1.fcn.0.weight f4 [32, 4]
8.536406e-15 -4.5788845e-11 0.20131876 -0.25588456 7.798168e-09 -0.00883619 -0.014112996 0.01327869
-3.6495218e-13 -0.00013097285 -0.14288346 0.2965753 0.014391392 -0.0026639285 0.197799 0.26763746
-2.498e-41 2.405e-41 0.20225002 0.19141008 0.0013325752 -8.49876e-33 -0.2655291 -0.37074903
4.405348e-06 8.2794e-41 -0.23211944 0.16909643 -2.9479374e-05 -0.00012196142 0.113935836 -0.035718966
8.874081e-10 2.05917e-13 0.30646425 -0.10056015 1.3784885e-14 -1.5250171e-07 0.24549825 -0.34063655
-2.135134e-05 -4.493985e-05 -0.29959822 0.032535873 -9.65206e-39 -0.0015033596 0.120173946 0.28524294
0.00039716356 0.0086941235 0.15852441 -0.0050400626 3.37358e-08 -2.5938e-41 -0.17750023 0.03915762
1.7914249e-09 -1.4028284e-12 0.20411594 0.24503405 -5.1408045e-07 2.2640415e-07 0.26424742 -0.032946046
-2.4207072e-20 0.0012952462 -0.2723648 0.040802628 0.0042396886 -4.9599403e-25 0.24013238 0.21771169
-0.011712644 -6.128858e-06 0.3455291 0.25321868 -2.5137273e-10 -0.0073714424 0.17024726 0.04787069
8.0822865e-08 -0.0001526342 -0.07154858 0.1771147 0.0011245568 -1.9156e-41 -0.10487826 -0.3371509
-3.0673676e-26 0.002005379 -0.16244248 -0.33782804 0.0020072658 1.0515386e-28 0.32065636 -0.3558326
-0.00020324517 -0.006865086 -0.17852633 0.3582126 -6.114535e-05 -1.037286e-08 0.2639455 -0.009426833
-0.004908387 -0.0034098634 -0.020212151 -0.41188285 2.5392856e-06 0.0021056477 0.24568883 -0.3585873
-0.0011072626 -0.0022396296 0.12461719 0.3558654 -1.3241968e-05 -2.4776e-41 -0.015853254 0.060771007
-0.00035478256 8.131289e-05 -0.08930219 -0.05737995 0.015025368 -2.0181873e-05 0.21555646 -0.14476466
00000000: 39c7 1928 a861 49ae 8126 4e3e 4d03 83be
00000010: b5f8 0532 abc5 10bc 323a 67bc dd8e 593c
00000020: 2773 cdaa c255 09b9 0b50 12be b8d8 973e
00000030: dfc9 6b3c 4e95 2ebb d28b 4a3e c707 893e
00000040: a245 0080 0b43 0000 a11a 4f3e 0101 443e
00000050: cea9 ae3a 2983 308a 6ef3 87be d1d2 bdbe
00000060: a7d1 9336 cce6 0000 b8b0 6dbe 9d27 2d3e
00000070: 794a f7b7 8ac5 ffb8 3157 e93d 0d4e 12bd
00000080: cbed 7330 89d7 672a e2e8 9c3e 7bf2 cdbd
00000090: 9053 7828 5abf 23b4 e563 7b3e ea67 aebe
000000a0: a71b b3b7 cc7d 3cb8 f064 99be 5644 053d
000000b0: 041a 6980 610c c5ba c21d f63d 5d0b 923e
000000c0: 643a d039 cc71 0e3c 3954 223e 1c27 a5bb
000000d0: e8e4 1033 4e48 0080 9fc2 35be be63 203d
000000e0: 2936 f630 386e c5ab c503 513e 35ea 7a3e
000000f0: 57ff 09b5 8019 7334 704b 873e 6ff2 06bd
00000100: 1ca1 e49e 40c5 a93a 6673 8bbe a820 273d
00000110: 16ed 8a3b b280 1997 43e5 753e d0ef 5e3e
00000120: 64e6 3fbc 7da6 cdb6 31e9 b03e e1a5 813e
00000130: 9131 8aaf 248c f1bb 4c55 2e3e 0e14 443d
00000140: d790 ad33 6e0c 20b9 1088 92bd 8e5d 353e
00000150: dd65 933a 6635 0080 6aca d6bd 0b9f acbe
00000160: 81e3 1795 ad6c 033b 5257 26be ccf7 acbe
00000170: 558c 033b 614c 0511 122d a43e b12f b6be
00000180: 361e 55b9 84f4 e0bb 9bcf 36be a467 b73e
00000190: 293b 80b8 5234 32b2 dd23 873e 0173 1abc
000001a0: 89d6 a0bb 0478 5fbb f493 a5bc 4fe2 d2be
000001b0: 9868 2a36 e8fe 093b da95 7b3e c198 b7be
000001c0: 9121 91ba c0c6 12bb 4c37 ff3d fd33 b63e
000001d0: d229 5eb7 1145 0080 afde 81bc 05eb 783d
000001e0: 1c02 bab9 8786 aa38 11e4 b6bd 3d07 6bbd
000001f0: f62c 763c 3e4c a9b7 d5ba 5c3e 303d 14be

layers.0.s1.fcn.0.bias f4 [32]
-0.008565433 -0.1747325 0.055102244 -0.432132 0.1738811 -0.49999106 -0.041089825 -0.0102767255
-0.44100094 -0.07964969 -0.30161533 -0.3574507 -0.12080944 0.46527642 -0.32458398 -0.107519336
-0.12213876 -0.25490466 -0.310481 -0.21199472 -0.38728994 -0.43702763 0.45414424 0.018557655
0.07567515 -0.0026524514 -0.30752653 -0.0077992002 0.24481285 -0.39956474 -0.5038451 0.18693477
00000000: 0856 0cbc 14ed 32be e4b2 613d 6840 ddbe
00000010: e30d 323e d4fe ffbe ce4d 28bd b65f 28bc
00000020: e0ca e1be 601f a3bd 536d 9abe c703 b7be
00000030: f16a f7bd b638 ee3e df2f a6be 1933 dcbd
00000040: e323 fabd dd82 82be 5ef7 9ebe 2515 59be
00000050: de4a c6be 16c2 dfbe 9885 e83e 3906 983c
00000060: 93fb 9a3d c0d4 2dbb 1e74 9dbe 6f90 ffbb
00000070: 38b0 7a3e c093 ccbe fefb 00bf d46b 3f3e

layers.0.s1.fcn.2.weight f4 [32, 32]
0.21246552 0.057948273 0.07095555 -0.18452354 0.18550353 -0.21221559 -0.15674615 -0.19917567
0.08413392 -0.12945612 -0.21186064 -0.036061157 -0.049062952 0.032127358 -0.09625904 -0.09924713
-0.20151159 0.14464958 0.27533242 0.26597118 -0.02214343 -0.031412635 -0.23517533 0.15627825
0.20396721 -0.30470893 0.26708248 -0.069101915 0.18000853 0.29207516 -0.26813433 -0.15064582
-0.0024472042 -0.07536204 0.22270054 0.19550091 0.28467387 -0.25156206 -0.19771686 -0.13418345
-0.07825901 -0.05093533 -0.2604408 -0.046664678 0.24194117 -0.14219922 -0.030956954 0.2317985
0.1810723 0.28267413 0.26726538 -0.042098448 -0.25026485 -0.30298188 0.036324948 -0.1032378
-0.06391642 -0.24370556 -0.26997086 0.091016665 0.24472773 0.008219476 -0.22038706 -0.14979886
-0.27271324 -0.28166547 0.065668985 0.2587238 -0.031410843 -0.29923394 -0.2856808 0.29312846
0.030450167 -0.18150726 -0.17438546 0.1894278 -0.06471693 -0.23775636 -0.15926442 0.25063762
0.1794395 0.09653656 0.24335417 0.16174442 0.18671393 0.27286878 0.13819301 -0.044136964
-0.013783655 -0.07441074 -0.2565485 -0.17021807 0.034872647 -0.23126134 -0.30444497 -0.20107809
0.060704354 -0.2028007 0.1893804 -0.3087495 -0.12370047 -0.27814168 -0.093097426 0.006607667
-0.12923932 -0.27242723 0.17121923 0.055002276 0.07000726 0.23924054 -0.19169106 -0.13008001
0.056286737 -0.036914304 -0.039859008 0.2504125 0.04534173 -0.10035508 0.28787842 -0.04591831
0.21536398 0.19939323 0.12956853 -0.015533015 -0.27728906 -0.2411953 -0.027978797 -0.00542672
0.22280978 -0.2980207 0.21804789 -0.25725245 -0.08302143 0.014388388 -0.18783705 -0.1805604
-0.011606302 -0.1696191 -0.13236305 0.19675812 -0.06852007 -0.16804542 0.14964904 -0.18601212
0.10467698 0.26602116 -0.23918965 0.10790624 -0.09547697 0.30722642 -0.21574712 -0.26547045
-0.27087986 0.1500818 0.062717564 0.025232572 -0.20787689 -0.10088321 0.0062758666 0.0573057
0.0864785 -0.1498522 -0.19094028 0.31367764 -0.16597326 0.24997577 -0.26371124 -0.13430664
-0.21809532 0.22304806 0.20576356 0.05017085 0.03663889 -0.20794249 0.18491559 0.22670776
-0.2843474 -0.18621609 -0.27152357 -0.13223812 -0.12742822 -0.2322818 0.23613748 -0.094191805
0.13607287 -0.1863952 0.20558278 0.30112138 -0.13443176 0.04832731 0.035507202 0.061563026
0.27248156 -0.27830458 -0.13340934 -0.04592055 0.15507193 0.18806207 0.18377994 -0.18766901
0.24616143 0.260893 -0.14584516 -0.27888787 0.16232216 0.083463416 0.056128766 -0.2933721
-0.2930272 -0.085640945 -0.2321963 -0.039127048 0.17302851 0.2430113 -0.15052117 0.07656328
0.07967845 0.05255022 -0.1727982 0.25963852 -0.14524917 0.110217385 0.015617484 0.3022233
-0.08202336 0.08974123 -0.19807346 -0.23357621 0.22826298 0.1615524 0.22373895 0.0815185
0.08967129 -0.15967967 -0.052318797 0.15297928 -0.19230261 0.009938229 0.0125453295 0.25879332
0.041072097 -0.040020443 -0.25413826 0.23153737 0.065611705 -0.19470409 0.028151551 0.23550187
-0.0068273386 0.018088566 0.23510663 0.20897931 0.29457954 0.09921101 0.25135654 -0.18881716
00000000: 9090 593e 2b5b 6d3d 2551 913d bdf3 3cbe
00000010: a3f4 3d3e 0b4f 59be 1082 20be b5f4 4bbe
00000020: 684e ac3d 2590 04be fff1 58be ddb4 13bd
00000030: 3cf6 48bd fa97 033d 7623 c5bd 1442 cbbd
00000040: 0e59 4ebe 051f 143e 5ff8 8c3e 602d 883e
00000050: 2366 b5bc 89aa 00bd cdd1 70be 6807 203e
00000060: c8dc 503e cf02 9cbe 09bf 883e 4e85 8dbd
00000070: 2854 383e e08a 953e e748 89be e642 1abe
00000080: 4661 20bb 6a57 9abd 9c0b 643e 6431 483e
00000090: c6c0 913e becc 80be 4a76 4abe 6367 09be
000000a0: 4346 a0bd 91a1 50bd 7f58 85be 7623 3fbd
000000b0: 6dbf 773e ac9c 11be 7099 fdbc 965c 6d3e
000000c0: 046b 393e aaba 903e 02d7 883e 6c6f 2cbd
000000d0: b722 80be 7120 9bbe 78c9 143d 576e d3bd
000000e0: 9de6 82bd f38d 79be 9f39 8abe f266 ba3d
000000f0: e899 7a3e fbaa 063c 25ad 61be df64 19be
00000100: 12a1 8bbe 7536 90be 767d 863d 7277 843e
00000110: a8a8 00bd 3135 99be c144 92be ef14 963e
00000120: a172 f93c 0add 39be 1a92 32be 5cf9 413e
00000130: 4f8a 84bd 6776 73be 3616 23be 9353 803e
00000140: fdbe 373e f6b4 c53d d631 793e 54a0 253e
00000150: f031 3f3e 75b5 8b3e 7882 0d3e f6c8 34bd
00000160: d7d4 61bc a864 98bd 535a 83be a54d 2ebe
00000170: 9fd6 0e3d c6cf 6cbe 36e0 9bbe 6ae7 4dbe
00000180: 21a5 783d fdaa 4fbe f0ec 413e 6a14 9ebe
00000190: ac56 fdbd 9668 8ebe dda9 bebd 2185 d83b
000001a0: 5057 04be 957b 8bbe 1854 2f3e 114a 613d
000001b0: f75f 8f3d 79fb 743e a94a 44be b233 05be
000001c0: ec8c 663d 7433 17bd 3343 23bd 1136 803e
000001d0: 40b8 393d f786 cdbd cd64 933e d614 3cbd
000001e0: 6088 5c3e bd2d 4c3e 9dad 043e 307e 7ebc
000001f0: d5f8 8dbe e7fb 76be ca33 e5bc a0d2 b1bb
00000200: 3f28 643e 2b96 98be f247 5f3e 98b6 83be
00000210: 2407 aabd 46bd 6b3c 5b58 40be d3e4 38be
00000220: 5c28 3ebc a1b0 2dbe 2e8a 07be f67a 493e
00000230: 4054 8cbd 1914 2cbe 993d 193e f679 3ebe
00000240: e260 d63d ed33 883e 22ee 74be f2fd dc3d
00000250: 6e89 c3bd c84c 9d3e d0ec 5cbe beeb 87be
00000260: c4b0 8abe 0baf 193e 1172 803d 8ab4 ce3c
00000270: aedd 54be db9b cebd c9a5 cd3b 62b9 6a3d
00000280: a41b b13d db72 19be d985 43be 5b9a a03e
00000290: e5f4 29be a6f9 7f3e 2905 87be ae87 09be
000002a0: 6154 5fbe b666 643e afb3 523e f37f 4d3d
000002b0: a912 163d e0ee 54be 835a 3d3e 1426 683e
000002c0: fb95 91be 6eaf 3ebe 2305 8bbe 6e69 07be
000002d0: 8b7c 02be 48db 6dbe 06ce 713e a2e7 c0bd
000002e0: b056 0b3e 62de 3ebe 4b84 523e 952c 9a3e
000002f0: 7ba8 09be dbf2 453d 0070 113d 8329 7c3d
00000300: b482 8b3e f07d 8ebe 759c 08be 3017 3cbd
00000310: 2dcb 1e3e 5893 403e cf30 3c3e 4e2c 40be
00000320: be11 7c3e c493 853e 6f58 15be 64ca 8ebe
00000330: c837 263e deee aa3d 47e7 653d de34 96be
00000340: a907 96be 8564 afbd dec4 6dbe af43 20bd
00000350: 632e 313e f4d7 783e 3922 1abe 35cd 9c3d
00000360: 752e a33d e63e 573d 03f2 30be 57ef 843e
00000370: 33bc 14be a7b9 e13d 7ae0 7f3c 03bd 9a3e
00000380: ddfb a7bd 40ca b73d c5d3 4abe 9a2e 6fbe
00000390: c5bd 693e fe6d 253e d31b 653e 2cf3 a63d
000003a0: 95a5 b73d 1183 23be 3c4c 56bd 9aa6 1c3e
000003b0: faea 44be f4d3 223c ed8a 4d3c 8f80 843e
000003c0: 373b 283d 7aec 23bd 691e 82be 2218 6d3e
000003d0: 6e5f 863d 8260 47be 159e e63c 6727 713e
000003e0: deb7 dfbb 792e 943c cbbf 703e acfe 553e
000003f0: 21d3 963e 242f cb3d ceb1 803e 4959 41be

layers.0.s1.fcn.2.bias f4 [32]
-0.101633236 -0.026977675 -0.14383899 0.084912054 -0.14508998 0.13833952 0.12202455 0.15759298
0.14846036 -0.17748821 0.018534917 -0.07720144 -0.012030213 0.0687952 0.12806316 0.13209301
0.14985612 0.05449481 -0.14928229 -0.11582464 0.134832 0.083224796 0.13306282 -0.12992875
-0.05442974 0.06530292 -0.17999046 0.116273455 -0.14859597 -0.024728429 -0.14637733 0.12428327
00000000: 1625 d0bd 4900 ddbc 874a 13be 5fe6 ad3d
00000010: 7892 14be e0a8 0d3e 02e8 f93d 0e60 213e
00000020: fe05 183e 78bf 35be 8ad6 973c ca1b 9ebd
00000030: 5f1a 45bc 7fe4 8c3d fd22 033e 6443 073e
00000040: e273 193e f335 5f3d 75dd 18be 7835 edbd
00000050: 6611 0a3e c371 aa3d 9f41 083e 0b0c 05be
00000060: b8f1 5ebd 8abd 853d 6b4f 38be c720 ee3d
00000070: 8b29 18be 4693 cabc f0e3 15be 3a88 fe3d

layers.0.s1.fcn.4.weight f4 [4, 32]
0.05127217 -0.38697362 -0.1934113 0.3346502 0.12844464 -0.35425553 -0.3361163 -0.36423036
-0.24237353 -0.27471066 -0.23194359 0.2867129 0.20722137 -0.077250145 -0.27216256 0.3862699
0.15923032 0.2513352 -0.3465839 -0.21656749 0.334907 0.26389623 -0.16523328 -0.09824558
0.24315862 -0.27277377 -0.006723567 0.0833052 -0.41031477 0.28171146 -0.20279714 -0.0048822234
0.096169546 -0.023730848 -0.26471746 -0.11468404 -0.017895155 0.3660983 -0.010013611 -0.018792601
-0.22290172 -0.2737645 -0.3598475 0.013917741 -0.083058126 -0.34071654 0.007184457 -0.28796774
-0.2260081 -0.018185081 0.065428786 0.12200367 0.23754339 0.088746086 -0.3808922 -0.2688811
-0.25737292 0.35290828 -0.16180515 0.12178742 -0.0720773 -0.21852304 0.37281367 0.30802044
9.681795e-07 2.5506056e-08 5.542e-42 -3.813e-42 -2.9507724e-10 -1.7137029e-06 -6.7673e-41 -8.625942e-10
0.0017873646 6.823e-42 1.4502846e-05 -2.103029e-06 -0.0009494728 3.1759622e-16 1.1352e-41 9.9034505e-24
2.8934292e-07 -0.0005522808 -2.205361e-25 -1.29e-42 -0.0023718474 -7.846723e-05 -0.008046974 0.0076531805
-0.0064949025 -2.4012296e-08 -6.9755967e-20 -0.012874312 -0.0133559285 -6.57995e-40 -0.0065999217 8.752603e-07
-0.011333562 9.858406e-06 0.0054513225 -1.3407059e-29 -9.826758e-25 -0.008642828 0.0031511874 -4.40418e-39
0.0115453955 0.0021858283 -7.0166934e-06 0.008013902 -0.012301196 0.00019928344 -0.0009874285 -0.0067757075
-2.0501997e-05 5.762e-42 0.00014067392 1.3962693e-07 2.6923546e-15 0.012782147 2.166e-41 0.003416551
-0.00016592917 2.7198e-41 3.255e-42 -0.0053075524 3.5955774e-12 -5.4663396e-06 -1.333e-41 3.6205208e-08
00000000: c402 523d 6821 c6be 9d0d 46be 4557 ab3e
00000010: fe86 033e fb60 b5be 7017 acbe 677c babe
00000020: c430 78be e0a6 8cbe 9f82 6dbe 09cc 923e
00000030: d731 543e 5335 9ebd e458 8bbe 2bc5 c53e
00000040: 460d 233e 02af 803e 7273 b1be dec3 5dbe
00000050: ee78 ab3e 681d 873e ea32 29be fb34 c9bd
00000060: 93fe 783e 01a9 8bbe 5e51 dcbb eb9b aa3d
00000070: c714 d2be 7c3c 903e 0eaa 4fbe 0ffb 9fbb
00000080: 8af4 c43d 3267 c2bc 0c89 87be 77df eabd
00000090: dc98 92bc 3d71 bb3e 2110 24bc f1f2 99bc
000000a0: 5940 64be dc2a 8cbe ee3d b8be 3d07 643c
000000b0: 611a aabd 6672 aebe 986b eb3b 8270 93be
000000c0: ab6e 67be e1f8 94bc 87ff 853d 0fdd f93d
000000d0: 933e 733e 82c0 b53d 4d04 c3be c9aa 89be
000000e0: 62c6 83be 65b0 b43e 40b0 25be af6b f93d
000000f0: 439d 93bd 81c4 5fbe 6fe1 be3e dbb4 9d3e
00000100: 65f2 8135 6918 db32 730f 0000 a10a 0080
00000110: 6e38 a2af 6202 e6b5 a5bc 0080 ac1b 6db0
00000120: 0146 ea3a 0513 0000 4051 7337 c321 0db6
00000130: 0ae6 78ba ee14 b725 a51f 0000 838f 3f19
00000140: fd56 9b34 f0c6 10ba 5781 8896 9903 0080
00000150: ff70 1bbb c68e a4b8 75d7 03bc 88c7 fa3b
00000160: 31d3 d4bb 9943 ceb2 e5b4 a49f c7ee 52bc
00000170: d3d2 5abc 392a 0780 2844 d8bb 6ef3 6a35
00000180: 68b0 39bc 8865 2537 02a1 b23b b7f6 878f
00000190: cd0f 9897 a69a 0dbc 2784 4e3b 10f5 2f80
000001a0: e628 3d3c 1d40 0f3b f070 ebb6 be4c 033c
000001b0: f58a 49bc bef6 5039 9a6c 81ba c106 debb
000001c0: b4fb abb7 1010 0000 de81 1339 5cec 1534
000001d0: 2d01 4227 366c 513c 613c 0000 37e8 5f3b
000001e0: 46fd 2db9 d14b 0000 1309 0000 faea adbb
000001f0: 2a04 7d2c 806b b7b6 2925 0080 0c80 1b33

layers.0.s1.fcn.4.bias f4 [4]
0.0032484378 0.0735568 -2.0745e-41 -5.4419505e-32
00000000: bee3 543b f3a4 963d d439 0080 f747 8d8b

layers.1.mask f4 [4]
1.0 1.0 0.0 0.0
00000000: 0000 803f 0000 803f 0000 0000 0000 0000

layers.1.t1.fcn.0.weight f4 [32, 4]
-0.010091979 -0.14080627 -9.80645e-06 2.1073272e-16 -0.23319592 -0.35364375 0.0024765066 8.147e-42
0.13090174 -0.15584664 1.0287599e-07 -2.770518e-06 -0.32170868 0.18404189 -0.0006097916 0.0010847298
-0.2951862 0.34121755 0.0053721718 9.4764295e-26 -0.24180572 -0.2446435 4.1986753e-18 -0.0036338097
-0.17741412 0.044704232 -7.289368e-08 -0.012034541 -0.08464394 0.2525096 0.009082622 -4.130157e-19
0.3321993 0.09125528 -1.2e-43 -1.34941756e-08 -0.06852968 0.105589494 5.074834e-07 -1.1561218e-06
-0.057368994 0.24391493 -3.6360705e-14 4.720072e-06 0.08833207 -0.31420264 0.0047298 1.974059e-15
-0.02054528 0.06395312 -0.002092037 -0.014481017 -0.14074816 -0.38012508 -1.7819e-41 -5.6709346e-13
-0.064302236 -0.16741557 6.694503e-05 0.00123176 0.13991758 0.039987747 4.7480628e-07 0.00011732387
-0.18302599 0.24751216 0.012046979 9.77392e-07 -0.21976666 -0.30494002 -1.0551548e-06 2.8161853e-28
0.13336483 -0.40336472 -0.013973568 -0.00022340154 0.29456708 0.41628927 -0.0014425649 0.00027092692
0.34823918 0.16862567 5.5362016e-06 0.00013933251 0.018677773 -0.27870476 -7.623931e-08 0.0038420595
0.3298748 -0.37337825 -2.7557628e-10 1.6203728e-07 0.23027739 0.20218456 8.4406415e-10 0.0112873195
-0.057175726 -0.2422128 -2.640211e-06 2.9787182e-06 -0.035839137 -0.18155347 -2.9010243e-05 -0.0006905965
-0.34776917 -0.36126915 -4.628734e-15 -1.1267618e-05 -0.37242395 0.15476856 9.238742e-10 0.0034690597
0.21929353 0.3241522 1.533e-42 -0.0018303209 0.37179035 0.2554059 -1.0911015e-07 -4.816e-42
-0.22296844 -0.0051420215 -1.9514618e-35 -2.9552305e-07 -0.09657518 0.28255975 -0.0008770789 9.275939e-09
00000000: d458 25bc 852f 10be 6286 24b7 52f5 7225
00000010: e9ca 6ebe cb10 b5be e34c 223b b616 0000
00000020: 1b0b 063e 4396 1fbe acec dc33 23ed 39b6
00000030: 00b7 a4be 7a75 3c3e 6cda 1fba 7e2d 8e3a
00000040: a522 97be 11b4 ae3e 0b09 b03b 02a0 ea15
00000050: eb9b 77be d383 7abe 5ee7 9a22 3625 6ebb
00000060: 0cac 35be c91b 373d b989 9cb3 862c 45bc
00000070: cd59 adbd f048 813e 47cf 143c 2bcd f3a0
00000080: 0716 aa3e 0ce4 ba3d 5600 0080 03d4 67b2
00000090: 4a59 8cbd 4e3f d83d fe39 0835 0b2c 9bb5
000000a0: c0fb 6abd d6c4 793e 0ac1 23a9 1c61 9e36
000000b0: 72e7 b43d 2bdf a0be 70fc 9a3b f63e 0e27
000000c0: 934e a8bc daf9 823d 8e1a 09bb ca41 6dbc
000000d0: 4920 10be c19f c2be ac31 0080 649f 1fab
000000e0: e4b0 83bd fd6e 2bbe d764 8c38 0273 a13a
000000f0: 8e46 0f3e 31ca 233d e1e8 fe34 c60b f638
00000100: 2a6b 3bbe d473 7d3e b160 453c ef2e 8335
00000110: 830a 61be 1921 9cbe d89e 8db5 387f b211
00000120: ca90 083e d285 cebe 64f1 64bc e540 6ab9
00000130: 7fd1 963e de23 d53e 7214 bdba 320b 8e39
00000140: 684c b23e 35ac 2c3e 9cc3 b936 c919 1239
00000150: 2102 993c 64b2 8ebe 01b9 a3b3 10cb 7b3b
00000160: 5ae5 a83e 6f2b bfbe ea7f 97af 78fc 2d34
00000170: d6cd 6b3e 7809 4f3e bc03 6830 73ee 383c
00000180: 1831 6abd a206 78be 7b2e 31b6 fde5 4736
00000190: 0fcc 12bd 27e9 39be 065b f3b7 2609 35ba
000001a0: cd0e b2be 45f8 b8be 89c4 a6a7 0d0a 3db7
000001b0: 5aae bebe a67b 1e3e def3 7d30 2a59 633b
000001c0: 7c8e 603e 47f7 a53e 4604 0000 61e7 efba
000001d0: 4e5b be3e 90c4 823e f04f eab3 6d0d 0080
000001e0: d751 64be 677e a8bb d883 cf85 61a8 9eb4
000001f0: 35c9 c5bd acab 903e c5eb 65ba 035c 1f32

layers.1.t1.fcn.0.bias f4 [32]
0.47316775 -0.31225565 -0.035223577 0.33687738 0.1648447 0.2242096 -0.2974599 0.07194205
-0.30596042 0.27981007 0.034079686 -0.4699976 0.39407638 0.31761408 -0.42715156 -0.52461815
-0.26794198 -0.24994904 -0.07683623 0.20697153 0.2666914 0.11980489 0.39403892 0.13078709
-0.07291223 0.37572518 0.20665778 -0.024529142 -0.52760017 -0.51128834 -0.35361376 0.45471016
00000000: 0b43 f23e f9df 9fbe 9946 10bd 317b ac3e
00000010: 0dcd 283e 3497 653e aa4c 98be 5a56 933d
00000020: d8a6 9cbe 4443 8f3e 2497 0b3d 87a3 f0be
00000030: 61c4 c93e 509e a23e 9cb3 dabe 604d 06bf
00000040: b12f 89be a4f2 7fbe 505c 9dbd 58f0 533e
00000050: c68b 883e 445c f53d 78bf c93e 0ded 053e
00000060: 0253 95bd 0d5f c03e 199e 533e 57f1 c8bc
00000070: ce10 07bf cbe3 02bf dd0c b5be c5cf e83e

layers.1.t1.fcn.2.weight f4 [32, 32]
-0.0969397 -0.14117835 0.18360236 0.14736755 -0.2590542 -0.2246902 0.055049337 -0.0020421918
0.15637468 -0.01971856 0.15153049 0.019020112 0.033242688 0.2914099 -0.2142927 -0.18836242
-0.3172654 0.2868841 0.22476724 0.24643104 0.046241958 -0.11857331 -0.024556465 -0.116789766
0.18421416 -0.0483807 -0.23334686 -0.19426578 0.20527533 -0.076222755 0.25040635 0.15267186
0.2526643 -0.17886555 -0.11395069 -0.094897024 0.20100895 0.085892715 -0.016477896 0.21945024
0.2922262 0.24645449 -0.15650915 -0.20130645 0.31040055 -0.035881046 -0.0681141 -0.15590762
0.20334862 -0.22393303 0.23814988 -0.026771206 -0.16212165 -0.19615224 0.3066613 -0.10937925
0.15049282 0.22652905 -0.049391974 -0.008840122 0.02369829 -0.2539688 0.12806548 -0.19659473
-0.22646868 -0.10480678 0.28342038 0.2280563 0.10123544 -0.31342593 0.07490478 0.26072586
0.18164158 -0.18191107 0.07672174 0.03780473 0.08172758 0.0049665836 0.33302197 -0.12477139
-0.06880863 -0.32341012 0.25021982 -0.061238524 -0.28071737 0.059147555 0.041812655 0.26812705
0.04726505 -0.2801654 0.12060883 -0.31309378 0.34389794 0.058138087 0.11496822 0.1861334
-0.03018813 0.15723002 -0.25907788 0.25671554 -0.00988935 0.31708607 0.12599505 -0.102361314
0.25568268 0.31796223 0.26631433 0.07388538 0.018896991 -0.21346357 -0.07704517 -0.25393385
0.2133047 0.058191612 -0.098579094 0.037459034 0.15268603 0.28847224 0.21715078 -0.20699368
-0.26097974 0.32990456 -0.08758392 0.060095437 -0.31602868 0.044527948 -0.0015759531 0.16121386
-0.112252794 -0.15256323 -0.13707256 -0.06542281 -0.2343781 0.19899839 -0.2808275 -0.20560221
-0.009065295 0.27231544 0.1231637 0.107714124 0.12616166 0.28629577 0.0640978 -0.26628628
-0.19162856 -0.11543149 -0.16013232 0.05734522 -0.061370313 -0.22244245 0.3142 -0.094314426
0.18537232 0.15835156 0.10011303 -0.05240269 -0.12021789 -0.20460796 -0.06532717 0.14703256
0.26442 0.033791464 -0.22271779 0.038836658 -0.2025706 -0.19606088 -0.26506174 0.11337371
-0.13454665 -0.19536376 0.25192893 -0.2946367 0.24680726 -0.22660868 -0.13472271 -0.31572747
-0.267345 -0.08411233 -0.05054653 -0.19385332 -0.03608125 -0.016250907 -0.16957398 -0.008583456
-0.01591517 0.060112577 -0.041979242 0.038688432 -0.2933621 -0.26878366 -0.13425297 -0.21783999
0.23749804 0.2325759 0.17723311 0.31860584 0.02675421 -0.12966068 0.0068884627 -0.23756842
-0.22773015 -0.14263494 0.23486048 0.12166049 0.3318814 0.04097554 0.18757553 -0.057656683
-0.26040733 0.052640606 0.21411726 0.08648711 -0.17266266 -0.07684891 -0.081187986 -0.28337556
0.11405389 0.26792803 0.29044357 0.12635 -0.06402172 -0.32321545 0.095346466 -0.19630258
0.17623813 0.25285178 0.18869427 0.24666464 0.09391103 0.02698913 0.23906547 -0.20999444
-0.015815934 -0.057902686 0.16527028 0.2972162 -0.11194652 -0.23502748 0.10499448 -0.13008049
-0.31549445 -0.22369513 -0.2269457 0.16669989 0.094610855 0.11388107 0.2544125 0.023006994
0.20098454 0.060445637 -0.0072616693 0.0053992486 0.059108157 -0.15086262 -0.0989477 -0.119136296
00000000: 5288 c6bd 0f91 10be 4202 3c3e 85e7 163e
00000010: c1a2 84be 3015 66be 6a7b 613d 4bd6 05bb
00000020: af20 203e d188 a1bc cf2a 1b3e 11d0 9b3c
00000030: 7c29 083d ae33 953e 8c6f 5bbe 14e2 40be
00000040: 9c70 a2be 79e2 923e 6229 663e 6b58 7c3e
00000050: 3568 3d3d 90d6 f2bd a42a c9bc 792f efbd
00000060: a3a2 3c3e d72a 46bd 7bf2 6ebe 9ced 46be
00000070: b233 523e ad1a 9cbd 4335 803e 0356 1c3e
00000080: 375d 813e 8828 37be fb5e e9bd 5f59 c2bd
00000090: 4ad5 4d3e 85e8 af3d a7fc 86bc 90b7 603e
000000a0: ac9e 953e 915e 7c3e ef43 20be 4723 4ebe
000000b0: d2ec 9e3e 01f8 12bd 687f 8bbd 3fa6 1fbe
000000c0: 9f3a 503e b34e 65be 90dd 733e 4a4f dbbc
000000d0: 3803 26be 22dc 48be b602 9d3e 3a02 e0bd
000000e0: ca1a 1a3e 3bf7 673e 3d4f 4abd 29d6 10bc
000000f0: eb22 c23c 3308 82be 9923 033e 2150 49be
00000100: 68e7 67be f0a4 d6bd 7a1c 913e 9787 693e
00000110: 8754 cf3d 5d79 a0be ad67 993d dc7d 853e
00000120: 4000 3a3e e546 3abe 4a20 9d3d 22d9 1a3d
00000130: ca60 a73d b9be a23b db81 aa3e 2488 ffbd
00000140: 8aeb 8cbd 0396 a5be d01c 803e 3fd5 7abd
00000150: 30ba 8fbe b544 723d bf43 2b3d f347 893e
00000160: ff98 413d d771 8fbe c301 f73d d44d a0be
00000170: 6413 b03e 3422 6e3d 7574 eb3d c199 3e3e
00000180: 194d f7bc e800 213e dba5 84be 3870 833e
00000190: f106 22bc 1b59 a23e d904 013e cfa2 d1bd
000001a0: d7e8 823e f2cb a23e 5a5a 883e 3851 973d
000001b0: ddcd 9a3c 3296 5abe dcc9 9dbd 9e03 82be
000001c0: 8c6c 5a3e 545a 6e3d d6e3 c9bd a56e 193d
000001d0: ba59 1c3e a2b2 933e c65c 5e3e 27f6 53be
000001e0: 239f 85be 40e9 a83e 335f b3bd a226 763d
000001f0: 83ce a1be f062 363d 3690 ceba 3f15 253e
00000200: cbe4 e5bd 8939 1cbe c05c 0cbe 65fc 85bd
00000210: d000 70be 3cc6 4b3e 9fc8 8fbe 6389 52be
00000220: 9a86 14bc ee6c 8b3e 403d fc3d 3999 dc3d
00000230: 8630 013e 5c95 923e b545 833d ad56 88be
00000240: 473a 44be 5867 ecbd baf9 23be d2e2 6a3d
00000250: 705f 7bbd f4c7 63be d3de a03e ec27 c1bd
00000260: 3ed2 3d3e e926 223e 0f08 cd3d 34a4 56bd
00000270: cc34 f6bd c084 51be 40ca 85bd b48f 163e
00000280: 0f62 873e eb68 0a3d 2210 64be 3013 1f3d
00000290: ab6e 4fbe 2fc4 48be 2cb6 87be 7a30 e83d
000002a0: 99c6 09be 700d 48be d4fc 803e 9fda 96be
000002b0: 0bbb 7c3e 1b0c 68be c0f4 09be 08a7 a1be
000002c0: 72e1 88be 1643 acbd e109 4fbd 7c81 46be
000002d0: efc9 13bd 9f20 85bc cda4 2dbe a0a1 0cbc
000002e0: 8860 82bc 9b38 763d 6df2 2bbd c377 1e3d
000002f0: 8f33 96be 039e 89be 9c79 09be 7211 5fbe
00000300: b032 733e 6028 6e3e 997c 353e 4e20 a33e
00000310: a52b db3c c5c5 04be 9db8 e13b 2345 73be
00000320: 1832 69be e50e 12be 447f 703e 2329 f93d
00000330: 5cec a93e f8d5 273d cd13 403e 6a29 6cbd
00000340: 1c54 85be ad9d 573d 8e41 5b3e 2720 b13d
00000350: 7bce 30be f662 9dbd e345 a6bd 9a16 91be
00000360: 1695 e93d dd2d 893e 05b5 943e e561 013e
00000370: d21d 83bd 7f7c a5be 0245 c33d 8b03 49be
00000380: c577 343e ca75 813e 1239 413e a895 7c3e
00000390: 6d54 c03d 4f18 dd3c 94cd 743e c808 57be
000003a0: 6b90 81bc 5e2b 6dbd 9d3c 293e b92c 983e
000003b0: 3844 e5bd 0bab 70be 5907 d73d d233 05be
000003c0: 7d88 a1be 5610 65be 7464 68be 60b3 2a3e
000003d0: 56c3 c13d 7a3a e93d 5b42 823e 2a79 bc3c
000003e0: e4ce 4d3e d895 773d 4cf3 edbb 2eec b03b
000003f0: 651b 723d bb7b 1abe 17a5 cabd bbfd f3bd

layers.1.t1.fcn.2.bias f4 [32]
-0.08272023 0.16957891 -0.19109796 0.12280862 0.027748339 -0.109604314 -0.090840824 0.012334182
-0.13626878 0.17023274 0.14557374 0.036895093 0.15878145 0.067825764 0.07610448 -0.15224023
-0.04057059 -0.14904265 0.09295448 -0.024545783 -0.06303594 -0.14891529 -0.03271284 -0.019821867
0.044408817 -0.08830914 0.025153646 0.11150117 -0.060287565 -0.14401512 0.14806786 0.06884003
00000000: 3969 a9bd 18a6 2d3e 2faf 43be 1683 fb3d
00000010: 7c50 e33c 3a78 e0bd c10a babd 4f15 4a3c
00000020: 0b8a 0bbe 7e51 2e3e 4811 153e 4f1f 173d
00000030: 9b97 223e 3ce8 8a3d aadc 9b3d dde4 1bbe
00000040: 592d 26bd a39e 18be eb5e be3d 3d14 c9bc
00000050: fd18 81bd 407d 18be e6fd 05bd 7861 a2bc
00000060: 05e6 353d 6cdb b4bd 050f ce3c ba5a e43d
00000070: 18f0 76bd b378 13be 1a9f 173e 00fc 8c3d

layers.1.t1.fcn.4.weight f4 [4, 32]
2.2467104e-18 7.731e-42 -1.7658951e-24 0.0054463022 -0.0051169232 1.921971e-09 -0.00032285473 0.0012845614
-0.00019808864 -0.009194019 -2.6494595e-06 -0.00022923092 -0.008212753 -1.8269e-41 -8.2034177e-07 1.882503e-18
0.0016242819 -1.8911364e-09 -0.00015810701 7.4661707e-06 0.014254143 -0.0046749166 -0.00077816716 5.2071e-41
2.2869304e-07 -3.982e-42 2.0563184e-05 -0.009609317 0.0027443762 3.1953714e-26 -1.0754645e-20 -7.958681e-12
0.005267484 -0.0052741794 -0.0043885354 -2.2896e-41 2.5101e-41 -0.0019072789 1.0315e-41 2.8895e-41
0.00022521436 0.0013025333 0.0031323736 0.0060663293 -3.6651487e-05 9.038133e-14 7.4466243e-06 0.011223317
1.1593e-41 0.005529669 2.8894097e-05 -0.0133227315 0.0011765389 0.0009665425 0.0038321367 1.1203181e-09
-1.2603705e-18 0.0016619936 0.0008891569 2.006e-41 0.0019180432 4.0744555e-07 1.5007958e-37 0.009756387
-0.0049133464 -0.035872668 0.32694623 -0.21902633 -0.25460273 -0.37451875 -0.38681957 0.10584086
-0.33382773 -0.2091652 0.012927478 -0.17590576 0.050882787 -0.18553808 -0.21256459 0.08528938
-0.3692906 -0.08445767 0.29761878 0.012854453 -0.08948302 0.32187706 -0.37062535 -0.20754705
-0.022338739 0.30067715 0.17231616 0.39875787 -0.38570136 0.26081884 0.0009926453 0.12144885
-0.08252836 -0.24938025 0.11952591 -0.05615264 -0.3127923 -0.38013145 -0.0070118965 -0.18730684
0.0063045267 0.13498737 -0.3156878 0.026439536 0.36932653 -0.2614556 -0.11474676 0.33923817
-0.29237208 0.36480263 -0.1357101 -0.17421009 0.14749634 -0.2604045 0.22758041 -0.1689855
-0.16003658 -0.28996673 0.3909734 0.24443272 -0.0057460754 0.1279764 0.20868775 -0.21172494
00000000: 29c7 2522 8d15 0000 28a1 0898 e576 b23b
00000010: ddab a7bb ac13 0431 d444 a9b9 ba5e a83a
00000020: 04b6 4fb9 83a2 16bc 5ecd 31b6 b55d 70b9
00000030: c88e 06bc ed32 0080 7535 5cb5 7ae7 0a22
00000040: dbe5 d43a 39f5 01b1 87c9 25b9 eb85 fa36
00000050: 368a 693c 0b30 99bb eafd 4bba 2791 0000
00000060: aa8e 7534 1a0b 0080 1a7f ac37 6670 1dbc
00000070: feda 333b 253a 1e15 4626 4b9e b602 0cad
00000080: dc9a ac3b 06d3 acbb b4cd 8fbb d33f 0080
00000090: f945 0000 a9fd f9ba c11c 0000 8c50 0000
000000a0: 8527 6c39 c4b9 aa3a 8248 4d3b 0fc8 c63b
000000b0: 3cba 19b8 4a85 cb29 04de f936 01e2 373c
000000c0: 5120 0000 3a32 b53b 9a61 f237 9647 5abc
000000d0: 1836 9a3a 925f 7d3a 9624 7b3b b0f9 9930
000000e0: 74ff b9a1 40d7 d93a 4f16 693a eb37 0000
000000f0: da66 fb3a e4be da34 1a47 4c02 41d9 1f3c
00000100: 2300 a1bb 38ef 12bd 7f65 a73e 7048 60be
00000110: 4a5b 82be ecc0 bfbe 370d c6be 18c3 d83d
00000120: 78eb aabe 672f 56be c6cd 533c a420 34be
00000130: 786a 503d b2fd 3dbe 88aa 59be 33ac ae3d
00000140: a813 bdbe 25f8 acbd 7d61 983e 7c9b 523c
00000150: e042 b7bd 12cd a43e 9bc2 bdbe 3787 54be
00000160: bbff b6bc 5bf2 993e a673 303e fe29 cc3e
00000170: a67a c5be 0c8a 853e a61b 823a 2dba f83d
00000180: a104 a9bd 895d 7fbe 00ca f43d 5000 66bd
00000190: 5026 a0be 97a0 c2be 0dc4 e5bb 5dcd 3fbe
000001a0: 3496 ce3b 213a 0a3e d5a1 a1be ba97 d83c
000001b0: 5e18 bd3e 82dd 85be 5900 ebbd a0b0 ad3e
000001c0: cbb1 95be 69c7 ba3e 97f7 0abe 2164 32be
000001d0: 4809 173e bd53 85be d70a 693e 890a 2dbe
000001e0: a1e0 23be 8576 94be aa2d c83e 924c 7a3e
000001f0: 9349 bcbb 3f0c 033e 3eb2 553e 6cce 58be

layers.1.t1.fcn.4.bias f4 [4]
8.96682e-20 -3.9805109e-13 0.15943407 0.006798632
00000000: 1ab9 d31f 3515 e0aa af42 233e 0fc7 de3b

layers.1.s1.fcn.0.weight f4 [32, 4]
-0.012438714 0.34735367 0.009357945 0.0025084838 -0.3551437 -0.051438145 5.492523e-05 -0.0042764945
-0.16580513 -0.24824665 5.6837187e-05 -2.9271946e-06 0.1451115 0.20537819 -1.2799445e-06 2.75633e-26
0.05816405 -0.023498464 1.1559388e-14 1.6447e-41 0.16846791 0.01551004 0.00025259043 1.3358203e-07
-0.16374493 0.07947298 8.783778e-05 3.6683947e-08 -0.35275117 0.003566651 3.785082e-30 2.4395004e-19
0.05902671 -0.3723561 0.0044174716 1.2098694e-17 -0.06888454 -0.29796997 0.008043054 -0.00023470112
-0.3228787 -0.1875553 0.0046693794 8.7053995e-06 -0.36311105 0.20258069 0.00026124227 -0.0019916687
-0.30376118 0.18007575 -0.0071155136 -0.0055584568 -0.09170172 -0.17075934 -1.3522413e-24 0.00995738
0.059432626 0.15044516 9.5536976e-08 -7.564591e-33 0.011465065 0.2205912 -2.682e-42 -0.009225733
0.029178364 0.33690682 -0.00042621917 0.00047066997 -0.25536186 0.095291026 -0.010380532 0.00279911
-0.15251704 0.17651367 5.4075e-41 -0.0018318465 -0.2061009 0.09641954 -0.0059019923 -3.446e-42
-0.08012687 0.3321611 0.009759822 -0.0049981102 -0.12663442 0.24393691 -2.8414e-41 0.005477998
-0.31227937 0.10156119 -0.002315219 6.8023316e-11 -0.118248425 0.38056946 0.0019210697 0.001186528
-0.32384303 0.028120652 0.0012311292 -9.122393e-05 0.09042063 -0.2123826 0.00141621 -3.5052938e-06
-0.3966662 0.11433053 0.0001498852 -2.886256e-28 0.32848278 0.23342513 0.008431446 0.0027354055
-0.16896236 -0.0016898378 -6.7803753e-06 -2.0680545e-22 0.14456946 -0.28630683 -6.41708e-40 -0.011847575
-0.3035199 -0.37996504 0.0003309001 6.1136734e-07 0.3249508 -0.34096923 -0.00019444825 -0.00087635755
00000000: bfcb 4bbc 57d8 b13e 1152 193c 6065 243b
00000010: 65d5 b5be ceb0 52bd 845f 6638 d621 8cbb
00000020: d2c8 29be 5f34 7ebe 7764 6e38 d270 44b6
00000030: 1c98 143e a94e 523e 8fca abb5 a27c 0815
00000040: 6d3d 6e3d da7f c0bc 453c 5028 d92d 0000
00000050: da82 2c3e d31d 7e3c 1d6e 8439 c06e 0f34
00000060: c0ac 27be bbc2 a23d 8d35 b838 6d8e 1d33
00000070: cd9b b4be 79be 693b 8a8a 990e b000 9020
00000080: fec5 713d 75a5 bebe 70c0 903b 782e 5f23
00000090: 5613 8dbd 858f 98be 03c7 033c 1a1a 76b9
000000a0: 5b50 a5be 7f0e 40be 9801 993b 680d 1237
000000b0: b1e9 b9be 5071 4f3e 58f7 8839 a886 02bb
000000c0: 9686 9bbe c765 383e 4129 e9bb b723 b6bb
000000d0: 1dce bbbd 89db 2ebe cc3f d197 4724 233c
000000e0: a06f 733d 4c0e 1a3e 022a cd33 441c 1d8a
000000f0: f8d7 3b3c a9e2 613e 7a07 0080 8727 17bc
00000100: 7707 ef3c 0d7f ac3e 2b76 dfb9 41c4 f639
00000110: cabe 82be f127 c33d 1b13 2abc 4671 373b
00000120: 6d2d 1cbe 00c0 343e bd96 0000 921a f0ba
00000130: 1d0c 53be 9c77 c53d 8065 c1bb 9b09 0080
00000140: 8e19 a4bd 0511 aa3e a9e7 1f3c 30c7 a3bb
00000150: 74ac 01be 99ca 793e 354f 0080 c780 b33b
00000160: 15e3 9fbe 50ff cf3d eeba 17bb b995 952e
00000170: 3b2c f2bd 00da c23e 67cc fb3a 4685 9b3a
00000180: c1ce a5be 485d e63c d75d a13a 794f bfb8
00000190: 742e b93d d37a 59be 1fa0 b93a 7d3c 6bb6
000001a0: d517 cbbe 2026 ea3d 812a 1d39 2ef0 b691
000001b0: e52e a83e ff06 6f3e 0c24 0a3c 7d44 333b
000001c0: 7804 2dbe 8c7d ddba fb82 e3b6 3003 7a9b
000001d0: 040a 143e cf96 92be d2fc 0680 551c 42bc
000001e0: f666 9bbe c78a c2be a97c ad39 d81c 2435
000001f0: f45f a63e 8593 aebe cee4 4bb9 5cbb 65ba

layers.1.s1.fcn.0.bias f4 [32]
0.3954527 0.19605839 -0.25372648 0.1558713 -0.47325686 -0.40304834 -0.32732117 0.25412402
-0.38451895 0.13900234 -0.021613803 -0.49481237 0.41625035 0.067006566 0.4718611 -0.48342887
-0.041842844 -0.23173112 -0.44331765 0.4112856 -0.19419743 -0.13362327 -0.39026853 -0.0411505
-0.1580503 -0.42407596 0.26241127 0.13918018 -0.032709528 -0.38811767 0.06695298 -0.3544432
00000000: c778 ca3e 88c3 483e 70e8 81be ba9c 1f3e
00000010: b94e f2be 5a5c cebe a496 a7be 8b1c 823e
00000020: abdf c4be a156 0e3e 6e0f b1bc 0c58 fdbe
00000030: c41e d53e bd3a 893d c797 f13e fd83 f7be
00000040: 6763 2bbd ec4a 6dbe 88fa e2be 0794 d23e
00000050: b1db 46be 8ad4 08be 47d1 c7be 6d8d 28bd
00000060: f0d7 21be 7c20 d9be c55a 863e 4085 0e3e
00000070: 6dfa 05bd 5cb7 c6be a51e 893d 9479 b5be
